…
I0614 19:57:00.807785 26519 net.cpp:294] The NetState phase (0) differed from the phase (1) specified by a rule in layer Accuracy
I0614 19:57:00.808017 26519 net.cpp:51] Initializing net from parameters: 
name: "Face-ResNet"
state {
  phase: TRAIN
  level: 0
  stage: ""
}
layer {
  name: "data"
  type: "ImageData"
  top: "data"
  top: "label"
  include {
    phase: TRAIN
  }
  transform_param {
    scale: 0.0078125
    mirror: true
    mean_value: 128
  }
  image_data_param {
    source: "/home/wujiyang/data/vggface2/train.txt"
    batch_size: 256
    shuffle: true
    root_folder: "/home/wujiyang/data/vggface2/"
  }
}
layer {
  name: "conv1_1"
  type: "Convolution"
  bottom: "data"
  top: "conv1_1"
  param {
    lr_mult: 1
    decay_mult: 1
  }
  param {
    lr_mult: 2
    decay_mult: 0
  }
  convolution_param {
    num_output: 64
    pad: 1
    kernel_size: 3
    stride: 2
    weight_filler {
      type: "xavier"
    }
    bias_filler {
      type: "constant"
      value: 0
    }
  }
}
layer {
  name: "relu1_1"
  type: "PReLU"
  bottom: "conv1_1"
  top: "conv1_1"
}
layer {
  name: "conv1_2"
  type: "Convolution"
  bottom: "conv1_1"
  top: "conv1_2"
  param {
    lr_mult: 1
    decay_mult: 1
  }
  param {
    lr_mult: 0
    decay_mult: 0
  }
  convolution_param {
    num_output: 64
    pad: 1
    kernel_size: 3
    stride: 1
    weight_filler {
      type: "gaussian"
      std: 0.01
    }
    bias_filler {
      type: "constant"
      value: 0
    }
  }
}
layer {
  name: "relu1_2"
  type: "PReLU"
  bottom: "conv1_2"
  top: "conv1_2"
}
layer {
  name: "conv1_3"
  type: "Convolution"
  bottom: "conv1_2"
  top: "conv1_3"
  param {
    lr_mult: 1
    decay_mult: 1
  }
  param {
    lr_mult: 0
    decay_mult: 0
  }
  convolution_param {
    num_output: 64
    pad: 1
    kernel_size: 3
    stride: 1
    weight_filler {
      type: "gaussian"
      std: 0.01
    }
    bias_filler {
      type: "constant"
      value: 0
    }
  }
}
layer {
  name: "relu1_3"
  type: "PReLU"
  bottom: "conv1_3"
  top: "conv1_3"
}
layer {
  name: "res1_3"
  type: "Eltwise"
  bottom: "conv1_1"
  bottom: "conv1_3"
  top: "res1_3"
  eltwise_param {
    operation: SUM
  }
}
layer {
  name: "conv2_1"
  type: "Convolution"
  bottom: "res1_3"
  top: "conv2_1"
  param {
    lr_mult: 1
    decay_mult: 1
  }
  param {
    lr_mult: 2
    decay_mult: 0
  }
  convolution_param {
    num_output: 128
    pad: 1
    kernel_size: 3
    stride: 2
    weight_filler {
      type: "xavier"
    }
    bias_filler {
      type: "constant"
      value: 0
    }
  }
}
layer {
  name: "relu2_1"
  type: "PReLU"
  bottom: "conv2_1"
  top: "conv2_1"
}
layer {
  name: "conv2_2"
  type: "Convolution"
  bottom: "conv2_1"
  top: "conv2_2"
  param {
    lr_mult: 1
    decay_mult: 1
  }
  param {
    lr_mult: 0
    decay_mult: 0
  }
  convolution_param {
    num_output: 128
    pad: 1
    kernel_size: 3
    stride: 1
    weight_filler {
      type: "gaussian"
      std: 0.01
    }
    bias_filler {
      type: "constant"
      value: 0
    }
  }
}
layer {
  name: "relu2_2"
  type: "PReLU"
  bottom: "conv2_2"
  top: "conv2_2"
}
layer {
  name: "conv2_3"
  type: "Convolution"
  bottom: "conv2_2"
  top: "conv2_3"
  param {
    lr_mult: 1
    decay_mult: 1
  }
  param {
    lr_mult: 0
    decay_mult: 0
  }
  convolution_param {
    num_output: 128
    pad: 1
    kernel_size: 3
    stride: 1
    weight_filler {
      type: "gaussian"
      std: 0.01
    }
    bias_filler {
      type: "constant"
      value: 0
    }
  }
}
layer {
  name: "relu2_3"
  type: "PReLU"
  bottom: "conv2_3"
  top: "conv2_3"
}
layer {
  name: "res2_3"
  type: "Eltwise"
  bottom: "conv2_1"
  bottom: "conv2_3"
  top: "res2_3"
  eltwise_param {
    operation: SUM
  }
}
layer {
  name: "conv2_4"
  type: "Convolution"
  bottom: "res2_3"
  top: "conv2_4"
  param {
    lr_mult: 1
    decay_mult: 1
  }
  param {
    lr_mult: 0
    decay_mult: 0
  }
  convolution_param {
    num_output: 128
    pad: 1
    kernel_size: 3
    stride: 1
    weight_filler {
      type: "gaussian"
      std: 0.01
    }
    bias_filler {
      type: "constant"
      value: 0
    }
  }
}
layer {
  name: "relu2_4"
  type: "PReLU"
  bottom: "conv2_4"
  top: "conv2_4"
}
layer {
  name: "conv2_5"
  type: "Convolution"
  bottom: "conv2_4"
  top: "conv2_5"
  param {
    lr_mult: 1
    decay_mult: 1
  }
  param {
    lr_mult: 0
    decay_mult: 0
  }
  convolution_param {
    num_output: 128
    pad: 1
    kernel_size: 3
    stride: 1
    weight_filler {
      type: "gaussian"
      std: 0.01
    }
    bias_filler {
      type: "constant"
      value: 0
    }
  }
}
layer {
  name: "relu2_5"
  type: "PReLU"
  bottom: "conv2_5"
  top: "conv2_5"
}
layer {
  name: "res2_5"
  type: "Eltwise"
  bottom: "res2_3"
  bottom: "conv2_5"
  top: "res2_5"
  eltwise_param {
    operation: SUM
  }
}
layer {
  name: "conv3_1"
  type: "Convolution"
  bottom: "res2_5"
  top: "conv3_1"
  param {
    lr_mult: 1
    decay_mult: 1
  }
  param {
    lr_mult: 2
    decay_mult: 0
  }
  convolution_param {
    num_output: 256
    pad: 1
    kernel_size: 3
    stride: 2
    weight_filler {
      type: "xavier"
    }
    bias_filler {
      type: "constant"
      value: 0
    }
  }
}
layer {
  name: "relu3_1"
  type: "PReLU"
  bottom: "conv3_1"
  top: "conv3_1"
}
layer {
  name: "conv3_2"
  type: "Convolution"
  bottom: "conv3_1"
  top: "conv3_2"
  param {
    lr_mult: 1
    decay_mult: 1
  }
  param {
    lr_mult: 0
    decay_mult: 0
  }
  convolution_param {
    num_output: 256
    pad: 1
    kernel_size: 3
    stride: 1
    weight_filler {
      type: "gaussian"
      std: 0.01
    }
    bias_filler {
      type: "constant"
      value: 0
    }
  }
}
layer {
  name: "relu3_2"
  type: "PReLU"
  bottom: "conv3_2"
  top: "conv3_2"
}
layer {
  name: "conv3_3"
  type: "Convolution"
  bottom: "conv3_2"
  top: "conv3_3"
  param {
    lr_mult: 1
    decay_mult: 1
  }
  param {
    lr_mult: 0
    decay_mult: 0
  }
  convolution_param {
    num_output: 256
    pad: 1
    kernel_size: 3
    stride: 1
    weight_filler {
      type: "gaussian"
      std: 0.01
    }
    bias_filler {
      type: "constant"
      value: 0
    }
  }
}
layer {
  name: "relu3_3"
  type: "PReLU"
  bottom: "conv3_3"
  top: "conv3_3"
}
layer {
  name: "res3_3"
  type: "Eltwise"
  bottom: "conv3_1"
  bottom: "conv3_3"
  top: "res3_3"
  eltwise_param {
    operation: SUM
  }
}
layer {
  name: "conv3_4"
  type: "Convolution"
  bottom: "res3_3"
  top: "conv3_4"
  param {
    lr_mult: 1
    decay_mult: 1
  }
  param {
    lr_mult: 0
    decay_mult: 0
  }
  convolution_param {
    num_output: 256
    pad: 1
    kernel_size: 3
    stride: 1
    weight_filler {
      type: "gaussian"
      std: 0.01
    }
    bias_filler {
      type: "constant"
      value: 0
    }
  }
}
layer {
  name: "relu3_4"
  type: "PReLU"
  bottom: "conv3_4"
  top: "conv3_4"
}
layer {
  name: "conv3_5"
  type: "Convolution"
  bottom: "conv3_4"
  top: "conv3_5"
  param {
    lr_mult: 1
    decay_mult: 1
  }
  param {
    lr_mult: 0
    decay_mult: 0
  }
  convolution_param {
    num_output: 256
    pad: 1
    kernel_size: 3
    stride: 1
    weight_filler {
      type: "gaussian"
      std: 0.01
    }
    bias_filler {
      type: "constant"
      value: 0
    }
  }
}
layer {
  name: "relu3_5"
  type: "PReLU"
  bottom: "conv3_5"
  top: "conv3_5"
}
layer {
  name: "res3_5"
  type: "Eltwise"
  bottom: "res3_3"
  bottom: "conv3_5"
  top: "res3_5"
  eltwise_param {
    operation: SUM
  }
}
layer {
  name: "conv3_6"
  type: "Convolution"
  bottom: "res3_5"
  top: "conv3_6"
  param {
    lr_mult: 1
    decay_mult: 1
  }
  param {
    lr_mult: 0
    decay_mult: 0
  }
  convolution_param {
    num_output: 256
    pad: 1
    kernel_size: 3
    stride: 1
    weight_filler {
      type: "gaussian"
      std: 0.01
    }
    bias_filler {
      type: "constant"
      value: 0
    }
  }
}
layer {
  name: "relu3_6"
  type: "PReLU"
  bottom: "conv3_6"
  top: "conv3_6"
}
layer {
  name: "conv3_7"
  type: "Convolution"
  bottom: "conv3_6"
  top: "conv3_7"
  param {
    lr_mult: 1
    decay_mult: 1
  }
  param {
    lr_mult: 0
    decay_mult: 0
  }
  convolution_param {
    num_output: 256
    pad: 1
    kernel_size: 3
    stride: 1
    weight_filler {
      type: "gaussian"
      std: 0.01
    }
    bias_filler {
      type: "constant"
      value: 0
    }
  }
}
layer {
  name: "relu3_7"
  type: "PReLU"
  bottom: "conv3_7"
  top: "conv3_7"
}
layer {
  name: "res3_7"
  type: "Eltwise"
  bottom: "res3_5"
  bottom: "conv3_7"
  top: "res3_7"
  eltwise_param {
    operation: SUM
  }
}
layer {
  name: "conv3_8"
  type: "Convolution"
  bottom: "res3_7"
  top: "conv3_8"
  param {
    lr_mult: 1
    decay_mult: 1
  }
  param {
    lr_mult: 0
    decay_mult: 0
  }
  convolution_param {
    num_output: 256
    pad: 1
    kernel_size: 3
    stride: 1
    weight_filler {
      type: "gaussian"
      std: 0.01
    }
    bias_filler {
      type: "constant"
      value: 0
    }
  }
}
layer {
  name: "relu3_8"
  type: "PReLU"
  bottom: "conv3_8"
  top: "conv3_8"
}
layer {
  name: "conv3_9"
  type: "Convolution"
  bottom: "conv3_8"
  top: "conv3_9"
  param {
    lr_mult: 1
    decay_mult: 1
  }
  param {
    lr_mult: 0
    decay_mult: 0
  }
  convolution_param {
    num_output: 256
    pad: 1
    kernel_size: 3
    stride: 1
    weight_filler {
      type: "gaussian"
      std: 0.01
    }
    bias_filler {
      type: "constant"
      value: 0
    }
  }
}
layer {
  name: "relu3_9"
  type: "PReLU"
  bottom: "conv3_9"
  top: "conv3_9"
}
layer {
  name: "res3_9"
  type: "Eltwise"
  bottom: "res3_7"
  bottom: "conv3_9"
  top: "res3_9"
  eltwise_param {
    operation: SUM
  }
}
layer {
  name: "conv4_1"
  type: "Convolution"
  bottom: "res3_9"
  top: "conv4_1"
  param {
    lr_mult: 1
    decay_mult: 1
  }
  param {
    lr_mult: 2
    decay_mult: 0
  }
  convolution_param {
    num_output: 512
    pad: 1
    kernel_size: 3
    stride: 2
    weight_filler {
      type: "xavier"
    }
    bias_filler {
      type: "constant"
      value: 0
    }
  }
}
layer {
  name: "relu4_1"
  type: "PReLU"
  bottom: "conv4_1"
  top: "conv4_1"
}
layer {
  name: "conv4_2"
  type: "Convolution"
  bottom: "conv4_1"
  top: "conv4_2"
  param {
    lr_mult: 1
    decay_mult: 1
  }
  param {
    lr_mult: 0
    decay_mult: 0
  }
  convolution_param {
    num_output: 512
    pad: 1
    kernel_size: 3
    stride: 1
    weight_filler {
      type: "gaussian"
      std: 0.01
    }
    bias_filler {
      type: "constant"
      value: 0
    }
  }
}
layer {
  name: "relu4_2"
  type: "PReLU"
  bottom: "conv4_2"
  top: "conv4_2"
}
layer {
  name: "conv4_3"
  type: "Convolution"
  bottom: "conv4_2"
  top: "conv4_3"
  param {
    lr_mult: 1
    decay_mult: 1
  }
  param {
    lr_mult: 0
    decay_mult: 0
  }
  convolution_param {
    num_output: 512
    pad: 1
    kernel_size: 3
    stride: 1
    weight_filler {
      type: "gaussian"
      std: 0.01
    }
    bias_filler {
      type: "constant"
      value: 0
    }
  }
}
layer {
  name: "relu4_3"
  type: "PReLU"
  bottom: "conv4_3"
  top: "conv4_3"
}
layer {
  name: "res4_3"
  type: "Eltwise"
  bottom: "conv4_1"
  bottom: "conv4_3"
  top: "res4_3"
  eltwise_param {
    operation: SUM
  }
}
layer {
  name: "fc5"
  type: "InnerProduct"
  bottom: "res4_3"
  top: "fc5"
  param {
    lr_mult: 1
    decay_mult: 1
  }
  param {
    lr_mult: 2
    decay_mult: 0
  }
  inner_product_param {
    num_output: 512
    weight_filler {
      type: "xavier"
    }
    bias_filler {
      type: "constant"
      value: 0
    }
  }
}
layer {
  name: "norm1"
  type: "Normalize"
  bottom: "fc5"
  top: "norm1"
}
layer {
  name: "fc6_l2"
  type: "InnerProduct"
  bottom: "norm1"
  top: "fc6"
  param {
    lr_mult: 1
  }
  inner_product_param {
    num_output: 100
    bias_term: false
    weight_filler {
      type: "xavier"
    }
    normalize: true
  }
}
layer {
  name: "label_specific_margin"
  type: "LabelSpecificAdd"
  bottom: "fc6"
  bottom: "label"
  top: "fc6_margin"
  label_specific_add_param {
    bias: -0.35
  }
}
layer {
  name: "fc6_margin_scale"
  type: "Scale"
  bottom: "fc6_margin"
  top: "fc6_margin_scale"
  param {
    lr_mult: 0
    decay_mult: 0
  }
  scale_param {
    filler {
      type: "constant"
      value: 30
    }
  }
}
layer {
  name: "softmax_loss"
  type: "SoftmaxWithLoss"
  bottom: "fc6_margin_scale"
  bottom: "label"
  top: "softmax_loss"
  loss_weight: 1
}
I0614 19:57:00.808228 26519 layer_factory.hpp:77] Creating layer data
I0614 19:57:00.808248 26519 net.cpp:84] Creating Layer data
I0614 19:57:00.808254 26519 net.cpp:380] data -> data
I0614 19:57:00.808270 26519 net.cpp:380] data -> label
I0614 19:57:00.808580 26519 image_data_layer.cpp:38] Opening file /home/wujiyang/data/vggface2/train.txt
I0614 19:57:00.813449 26519 image_data_layer.cpp:53] Shuffling data
I0614 19:57:00.813890 26519 image_data_layer.cpp:63] A total of 33625 images.
I0614 19:57:00.814898 26519 image_data_layer.cpp:90] output data size: 256,3,112,96
I0614 19:57:00.855499 26519 net.cpp:122] Setting up data
I0614 19:57:00.855530 26519 net.cpp:129] Top shape: 256 3 112 96 (8257536)
I0614 19:57:00.855535 26519 net.cpp:129] Top shape: 256 (256)
I0614 19:57:00.855536 26519 net.cpp:137] Memory required for data: 33031168
I0614 19:57:00.855542 26519 layer_factory.hpp:77] Creating layer label_data_1_split
I0614 19:57:00.855551 26519 net.cpp:84] Creating Layer label_data_1_split
I0614 19:57:00.855556 26519 net.cpp:406] label_data_1_split <- label
I0614 19:57:00.855566 26519 net.cpp:380] label_data_1_split -> label_data_1_split_0
I0614 19:57:00.855588 26519 net.cpp:380] label_data_1_split -> label_data_1_split_1
I0614 19:57:00.855635 26519 net.cpp:122] Setting up label_data_1_split
I0614 19:57:00.855640 26519 net.cpp:129] Top shape: 256 (256)
I0614 19:57:00.855643 26519 net.cpp:129] Top shape: 256 (256)
I0614 19:57:00.855646 26519 net.cpp:137] Memory required for data: 33033216
I0614 19:57:00.855648 26519 layer_factory.hpp:77] Creating layer conv1_1
I0614 19:57:00.855681 26519 net.cpp:84] Creating Layer conv1_1
I0614 19:57:00.855684 26519 net.cpp:406] conv1_1 <- data
I0614 19:57:00.855701 26519 net.cpp:380] conv1_1 -> conv1_1
I0614 19:57:01.235651 26519 net.cpp:122] Setting up conv1_1
I0614 19:57:01.235672 26519 net.cpp:129] Top shape: 256 64 56 48 (44040192)
I0614 19:57:01.235677 26519 net.cpp:137] Memory required for data: 209193984
I0614 19:57:01.235708 26519 layer_factory.hpp:77] Creating layer relu1_1
I0614 19:57:01.235718 26519 net.cpp:84] Creating Layer relu1_1
I0614 19:57:01.235720 26519 net.cpp:406] relu1_1 <- conv1_1
I0614 19:57:01.235726 26519 net.cpp:367] relu1_1 -> conv1_1 (in-place)
I0614 19:57:01.236536 26519 net.cpp:122] Setting up relu1_1
I0614 19:57:01.236546 26519 net.cpp:129] Top shape: 256 64 56 48 (44040192)
I0614 19:57:01.236549 26519 net.cpp:137] Memory required for data: 385354752
I0614 19:57:01.236555 26519 layer_factory.hpp:77] Creating layer conv1_1_relu1_1_0_split
I0614 19:57:01.236577 26519 net.cpp:84] Creating Layer conv1_1_relu1_1_0_split
I0614 19:57:01.236579 26519 net.cpp:406] conv1_1_relu1_1_0_split <- conv1_1
I0614 19:57:01.236584 26519 net.cpp:380] conv1_1_relu1_1_0_split -> conv1_1_relu1_1_0_split_0
I0614 19:57:01.236590 26519 net.cpp:380] conv1_1_relu1_1_0_split -> conv1_1_relu1_1_0_split_1
I0614 19:57:01.236623 26519 net.cpp:122] Setting up conv1_1_relu1_1_0_split
I0614 19:57:01.236642 26519 net.cpp:129] Top shape: 256 64 56 48 (44040192)
I0614 19:57:01.236645 26519 net.cpp:129] Top shape: 256 64 56 48 (44040192)
I0614 19:57:01.236672 26519 net.cpp:137] Memory required for data: 737676288
I0614 19:57:01.236675 26519 layer_factory.hpp:77] Creating layer conv1_2
I0614 19:57:01.236685 26519 net.cpp:84] Creating Layer conv1_2
I0614 19:57:01.236688 26519 net.cpp:406] conv1_2 <- conv1_1_relu1_1_0_split_0
I0614 19:57:01.236693 26519 net.cpp:380] conv1_2 -> conv1_2
I0614 19:57:01.239140 26519 net.cpp:122] Setting up conv1_2
I0614 19:57:01.239152 26519 net.cpp:129] Top shape: 256 64 56 48 (44040192)
I0614 19:57:01.239156 26519 net.cpp:137] Memory required for data: 913837056
I0614 19:57:01.239177 26519 layer_factory.hpp:77] Creating layer relu1_2
I0614 19:57:01.239183 26519 net.cpp:84] Creating Layer relu1_2
I0614 19:57:01.239187 26519 net.cpp:406] relu1_2 <- conv1_2
I0614 19:57:01.239190 26519 net.cpp:367] relu1_2 -> conv1_2 (in-place)
I0614 19:57:01.239333 26519 net.cpp:122] Setting up relu1_2
I0614 19:57:01.239339 26519 net.cpp:129] Top shape: 256 64 56 48 (44040192)
I0614 19:57:01.239342 26519 net.cpp:137] Memory required for data: 1089997824
I0614 19:57:01.239346 26519 layer_factory.hpp:77] Creating layer conv1_3
I0614 19:57:01.239352 26519 net.cpp:84] Creating Layer conv1_3
I0614 19:57:01.239356 26519 net.cpp:406] conv1_3 <- conv1_2
I0614 19:57:01.239362 26519 net.cpp:380] conv1_3 -> conv1_3
I0614 19:57:01.240413 26519 net.cpp:122] Setting up conv1_3
I0614 19:57:01.240422 26519 net.cpp:129] Top shape: 256 64 56 48 (44040192)
I0614 19:57:01.240427 26519 net.cpp:137] Memory required for data: 1266158592
I0614 19:57:01.240432 26519 layer_factory.hpp:77] Creating layer relu1_3
I0614 19:57:01.240450 26519 net.cpp:84] Creating Layer relu1_3
I0614 19:57:01.240453 26519 net.cpp:406] relu1_3 <- conv1_3
I0614 19:57:01.240458 26519 net.cpp:367] relu1_3 -> conv1_3 (in-place)
I0614 19:57:01.240592 26519 net.cpp:122] Setting up relu1_3
I0614 19:57:01.240597 26519 net.cpp:129] Top shape: 256 64 56 48 (44040192)
I0614 19:57:01.240600 26519 net.cpp:137] Memory required for data: 1442319360
I0614 19:57:01.240605 26519 layer_factory.hpp:77] Creating layer res1_3
I0614 19:57:01.240610 26519 net.cpp:84] Creating Layer res1_3
I0614 19:57:01.240613 26519 net.cpp:406] res1_3 <- conv1_1_relu1_1_0_split_1
I0614 19:57:01.240617 26519 net.cpp:406] res1_3 <- conv1_3
I0614 19:57:01.240622 26519 net.cpp:380] res1_3 -> res1_3
I0614 19:57:01.240640 26519 net.cpp:122] Setting up res1_3
I0614 19:57:01.240646 26519 net.cpp:129] Top shape: 256 64 56 48 (44040192)
I0614 19:57:01.240648 26519 net.cpp:137] Memory required for data: 1618480128
I0614 19:57:01.240651 26519 layer_factory.hpp:77] Creating layer conv2_1
I0614 19:57:01.240658 26519 net.cpp:84] Creating Layer conv2_1
I0614 19:57:01.240660 26519 net.cpp:406] conv2_1 <- res1_3
I0614 19:57:01.240664 26519 net.cpp:380] conv2_1 -> conv2_1
I0614 19:57:01.243260 26519 net.cpp:122] Setting up conv2_1
I0614 19:57:01.243273 26519 net.cpp:129] Top shape: 256 128 28 24 (22020096)
I0614 19:57:01.243276 26519 net.cpp:137] Memory required for data: 1706560512
I0614 19:57:01.243283 26519 layer_factory.hpp:77] Creating layer relu2_1
I0614 19:57:01.243288 26519 net.cpp:84] Creating Layer relu2_1
I0614 19:57:01.243291 26519 net.cpp:406] relu2_1 <- conv2_1
I0614 19:57:01.243295 26519 net.cpp:367] relu2_1 -> conv2_1 (in-place)
I0614 19:57:01.243423 26519 net.cpp:122] Setting up relu2_1
I0614 19:57:01.243429 26519 net.cpp:129] Top shape: 256 128 28 24 (22020096)
I0614 19:57:01.243432 26519 net.cpp:137] Memory required for data: 1794640896
I0614 19:57:01.243435 26519 layer_factory.hpp:77] Creating layer conv2_1_relu2_1_0_split
I0614 19:57:01.243439 26519 net.cpp:84] Creating Layer conv2_1_relu2_1_0_split
I0614 19:57:01.243443 26519 net.cpp:406] conv2_1_relu2_1_0_split <- conv2_1
I0614 19:57:01.243446 26519 net.cpp:380] conv2_1_relu2_1_0_split -> conv2_1_relu2_1_0_split_0
I0614 19:57:01.243451 26519 net.cpp:380] conv2_1_relu2_1_0_split -> conv2_1_relu2_1_0_split_1
I0614 19:57:01.243494 26519 net.cpp:122] Setting up conv2_1_relu2_1_0_split
I0614 19:57:01.243511 26519 net.cpp:129] Top shape: 256 128 28 24 (22020096)
I0614 19:57:01.243538 26519 net.cpp:129] Top shape: 256 128 28 24 (22020096)
I0614 19:57:01.243541 26519 net.cpp:137] Memory required for data: 1970801664
I0614 19:57:01.243556 26519 layer_factory.hpp:77] Creating layer conv2_2
I0614 19:57:01.243564 26519 net.cpp:84] Creating Layer conv2_2
I0614 19:57:01.243567 26519 net.cpp:406] conv2_2 <- conv2_1_relu2_1_0_split_0
I0614 19:57:01.243571 26519 net.cpp:380] conv2_2 -> conv2_2
I0614 19:57:01.245630 26519 net.cpp:122] Setting up conv2_2
I0614 19:57:01.245640 26519 net.cpp:129] Top shape: 256 128 28 24 (22020096)
I0614 19:57:01.245643 26519 net.cpp:137] Memory required for data: 2058882048
I0614 19:57:01.245648 26519 layer_factory.hpp:77] Creating layer relu2_2
I0614 19:57:01.245666 26519 net.cpp:84] Creating Layer relu2_2
I0614 19:57:01.245671 26519 net.cpp:406] relu2_2 <- conv2_2
I0614 19:57:01.245674 26519 net.cpp:367] relu2_2 -> conv2_2 (in-place)
I0614 19:57:01.245785 26519 net.cpp:122] Setting up relu2_2
I0614 19:57:01.245790 26519 net.cpp:129] Top shape: 256 128 28 24 (22020096)
I0614 19:57:01.245793 26519 net.cpp:137] Memory required for data: 2146962432
I0614 19:57:01.245796 26519 layer_factory.hpp:77] Creating layer conv2_3
I0614 19:57:01.245802 26519 net.cpp:84] Creating Layer conv2_3
I0614 19:57:01.245805 26519 net.cpp:406] conv2_3 <- conv2_2
I0614 19:57:01.245824 26519 net.cpp:380] conv2_3 -> conv2_3
I0614 19:57:01.248909 26519 net.cpp:122] Setting up conv2_3
I0614 19:57:01.248924 26519 net.cpp:129] Top shape: 256 128 28 24 (22020096)
I0614 19:57:01.248927 26519 net.cpp:137] Memory required for data: 2235042816
I0614 19:57:01.248939 26519 layer_factory.hpp:77] Creating layer relu2_3
I0614 19:57:01.248947 26519 net.cpp:84] Creating Layer relu2_3
I0614 19:57:01.248951 26519 net.cpp:406] relu2_3 <- conv2_3
I0614 19:57:01.248955 26519 net.cpp:367] relu2_3 -> conv2_3 (in-place)
I0614 19:57:01.249123 26519 net.cpp:122] Setting up relu2_3
I0614 19:57:01.249130 26519 net.cpp:129] Top shape: 256 128 28 24 (22020096)
I0614 19:57:01.249132 26519 net.cpp:137] Memory required for data: 2323123200
I0614 19:57:01.249135 26519 layer_factory.hpp:77] Creating layer res2_3
I0614 19:57:01.249141 26519 net.cpp:84] Creating Layer res2_3
I0614 19:57:01.249143 26519 net.cpp:406] res2_3 <- conv2_1_relu2_1_0_split_1
I0614 19:57:01.249146 26519 net.cpp:406] res2_3 <- conv2_3
I0614 19:57:01.249151 26519 net.cpp:380] res2_3 -> res2_3
I0614 19:57:01.249171 26519 net.cpp:122] Setting up res2_3
I0614 19:57:01.249191 26519 net.cpp:129] Top shape: 256 128 28 24 (22020096)
I0614 19:57:01.249195 26519 net.cpp:137] Memory required for data: 2411203584
I0614 19:57:01.249197 26519 layer_factory.hpp:77] Creating layer res2_3_res2_3_0_split
I0614 19:57:01.249202 26519 net.cpp:84] Creating Layer res2_3_res2_3_0_split
I0614 19:57:01.249204 26519 net.cpp:406] res2_3_res2_3_0_split <- res2_3
I0614 19:57:01.249208 26519 net.cpp:380] res2_3_res2_3_0_split -> res2_3_res2_3_0_split_0
I0614 19:57:01.249217 26519 net.cpp:380] res2_3_res2_3_0_split -> res2_3_res2_3_0_split_1
I0614 19:57:01.249269 26519 net.cpp:122] Setting up res2_3_res2_3_0_split
I0614 19:57:01.249286 26519 net.cpp:129] Top shape: 256 128 28 24 (22020096)
I0614 19:57:01.249289 26519 net.cpp:129] Top shape: 256 128 28 24 (22020096)
I0614 19:57:01.249291 26519 net.cpp:137] Memory required for data: 2587364352
I0614 19:57:01.249308 26519 layer_factory.hpp:77] Creating layer conv2_4
I0614 19:57:01.249318 26519 net.cpp:84] Creating Layer conv2_4
I0614 19:57:01.249321 26519 net.cpp:406] conv2_4 <- res2_3_res2_3_0_split_0
I0614 19:57:01.249326 26519 net.cpp:380] conv2_4 -> conv2_4
I0614 19:57:01.251538 26519 net.cpp:122] Setting up conv2_4
I0614 19:57:01.251549 26519 net.cpp:129] Top shape: 256 128 28 24 (22020096)
I0614 19:57:01.251551 26519 net.cpp:137] Memory required for data: 2675444736
I0614 19:57:01.251556 26519 layer_factory.hpp:77] Creating layer relu2_4
I0614 19:57:01.251576 26519 net.cpp:84] Creating Layer relu2_4
I0614 19:57:01.251580 26519 net.cpp:406] relu2_4 <- conv2_4
I0614 19:57:01.251585 26519 net.cpp:367] relu2_4 -> conv2_4 (in-place)
I0614 19:57:01.251700 26519 net.cpp:122] Setting up relu2_4
I0614 19:57:01.251706 26519 net.cpp:129] Top shape: 256 128 28 24 (22020096)
I0614 19:57:01.251709 26519 net.cpp:137] Memory required for data: 2763525120
I0614 19:57:01.251713 26519 layer_factory.hpp:77] Creating layer conv2_5
I0614 19:57:01.251720 26519 net.cpp:84] Creating Layer conv2_5
I0614 19:57:01.251724 26519 net.cpp:406] conv2_5 <- conv2_4
I0614 19:57:01.251729 26519 net.cpp:380] conv2_5 -> conv2_5
I0614 19:57:01.254546 26519 net.cpp:122] Setting up conv2_5
I0614 19:57:01.254557 26519 net.cpp:129] Top shape: 256 128 28 24 (22020096)
I0614 19:57:01.254560 26519 net.cpp:137] Memory required for data: 2851605504
I0614 19:57:01.254566 26519 layer_factory.hpp:77] Creating layer relu2_5
I0614 19:57:01.254571 26519 net.cpp:84] Creating Layer relu2_5
I0614 19:57:01.254575 26519 net.cpp:406] relu2_5 <- conv2_5
I0614 19:57:01.254578 26519 net.cpp:367] relu2_5 -> conv2_5 (in-place)
I0614 19:57:01.254681 26519 net.cpp:122] Setting up relu2_5
I0614 19:57:01.254688 26519 net.cpp:129] Top shape: 256 128 28 24 (22020096)
I0614 19:57:01.254689 26519 net.cpp:137] Memory required for data: 2939685888
I0614 19:57:01.254693 26519 layer_factory.hpp:77] Creating layer res2_5
I0614 19:57:01.254699 26519 net.cpp:84] Creating Layer res2_5
I0614 19:57:01.254703 26519 net.cpp:406] res2_5 <- res2_3_res2_3_0_split_1
I0614 19:57:01.254705 26519 net.cpp:406] res2_5 <- conv2_5
I0614 19:57:01.254709 26519 net.cpp:380] res2_5 -> res2_5
I0614 19:57:01.254729 26519 net.cpp:122] Setting up res2_5
I0614 19:57:01.254734 26519 net.cpp:129] Top shape: 256 128 28 24 (22020096)
I0614 19:57:01.254737 26519 net.cpp:137] Memory required for data: 3027766272
I0614 19:57:01.254739 26519 layer_factory.hpp:77] Creating layer conv3_1
I0614 19:57:01.254747 26519 net.cpp:84] Creating Layer conv3_1
I0614 19:57:01.254750 26519 net.cpp:406] conv3_1 <- res2_5
I0614 19:57:01.254755 26519 net.cpp:380] conv3_1 -> conv3_1
I0614 19:57:01.257431 26519 net.cpp:122] Setting up conv3_1
I0614 19:57:01.257443 26519 net.cpp:129] Top shape: 256 256 14 12 (11010048)
I0614 19:57:01.257445 26519 net.cpp:137] Memory required for data: 3071806464
I0614 19:57:01.257450 26519 layer_factory.hpp:77] Creating layer relu3_1
I0614 19:57:01.257455 26519 net.cpp:84] Creating Layer relu3_1
I0614 19:57:01.257459 26519 net.cpp:406] relu3_1 <- conv3_1
I0614 19:57:01.257463 26519 net.cpp:367] relu3_1 -> conv3_1 (in-place)
I0614 19:57:01.257550 26519 net.cpp:122] Setting up relu3_1
I0614 19:57:01.257556 26519 net.cpp:129] Top shape: 256 256 14 12 (11010048)
I0614 19:57:01.257560 26519 net.cpp:137] Memory required for data: 3115846656
I0614 19:57:01.257562 26519 layer_factory.hpp:77] Creating layer conv3_1_relu3_1_0_split
I0614 19:57:01.257566 26519 net.cpp:84] Creating Layer conv3_1_relu3_1_0_split
I0614 19:57:01.257568 26519 net.cpp:406] conv3_1_relu3_1_0_split <- conv3_1
I0614 19:57:01.257573 26519 net.cpp:380] conv3_1_relu3_1_0_split -> conv3_1_relu3_1_0_split_0
I0614 19:57:01.257580 26519 net.cpp:380] conv3_1_relu3_1_0_split -> conv3_1_relu3_1_0_split_1
I0614 19:57:01.257607 26519 net.cpp:122] Setting up conv3_1_relu3_1_0_split
I0614 19:57:01.257611 26519 net.cpp:129] Top shape: 256 256 14 12 (11010048)
I0614 19:57:01.257616 26519 net.cpp:129] Top shape: 256 256 14 12 (11010048)
I0614 19:57:01.257617 26519 net.cpp:137] Memory required for data: 3203927040
I0614 19:57:01.257619 26519 layer_factory.hpp:77] Creating layer conv3_2
I0614 19:57:01.257628 26519 net.cpp:84] Creating Layer conv3_2
I0614 19:57:01.257632 26519 net.cpp:406] conv3_2 <- conv3_1_relu3_1_0_split_0
I0614 19:57:01.257635 26519 net.cpp:380] conv3_2 -> conv3_2
I0614 19:57:01.263712 26519 net.cpp:122] Setting up conv3_2
I0614 19:57:01.263728 26519 net.cpp:129] Top shape: 256 256 14 12 (11010048)
I0614 19:57:01.263732 26519 net.cpp:137] Memory required for data: 3247967232
I0614 19:57:01.263739 26519 layer_factory.hpp:77] Creating layer relu3_2
I0614 19:57:01.263747 26519 net.cpp:84] Creating Layer relu3_2
I0614 19:57:01.263751 26519 net.cpp:406] relu3_2 <- conv3_2
I0614 19:57:01.263767 26519 net.cpp:367] relu3_2 -> conv3_2 (in-place)
I0614 19:57:01.263892 26519 net.cpp:122] Setting up relu3_2
I0614 19:57:01.263898 26519 net.cpp:129] Top shape: 256 256 14 12 (11010048)
I0614 19:57:01.263900 26519 net.cpp:137] Memory required for data: 3292007424
I0614 19:57:01.263905 26519 layer_factory.hpp:77] Creating layer conv3_3
I0614 19:57:01.263916 26519 net.cpp:84] Creating Layer conv3_3
I0614 19:57:01.263918 26519 net.cpp:406] conv3_3 <- conv3_2
I0614 19:57:01.263923 26519 net.cpp:380] conv3_3 -> conv3_3
I0614 19:57:01.270028 26519 net.cpp:122] Setting up conv3_3
I0614 19:57:01.270045 26519 net.cpp:129] Top shape: 256 256 14 12 (11010048)
I0614 19:57:01.270046 26519 net.cpp:137] Memory required for data: 3336047616
I0614 19:57:01.270053 26519 layer_factory.hpp:77] Creating layer relu3_3
I0614 19:57:01.270061 26519 net.cpp:84] Creating Layer relu3_3
I0614 19:57:01.270064 26519 net.cpp:406] relu3_3 <- conv3_3
I0614 19:57:01.270068 26519 net.cpp:367] relu3_3 -> conv3_3 (in-place)
I0614 19:57:01.270161 26519 net.cpp:122] Setting up relu3_3
I0614 19:57:01.270167 26519 net.cpp:129] Top shape: 256 256 14 12 (11010048)
I0614 19:57:01.270170 26519 net.cpp:137] Memory required for data: 3380087808
I0614 19:57:01.270179 26519 layer_factory.hpp:77] Creating layer res3_3
I0614 19:57:01.270185 26519 net.cpp:84] Creating Layer res3_3
I0614 19:57:01.270189 26519 net.cpp:406] res3_3 <- conv3_1_relu3_1_0_split_1
I0614 19:57:01.270191 26519 net.cpp:406] res3_3 <- conv3_3
I0614 19:57:01.270196 26519 net.cpp:380] res3_3 -> res3_3
I0614 19:57:01.270216 26519 net.cpp:122] Setting up res3_3
I0614 19:57:01.270221 26519 net.cpp:129] Top shape: 256 256 14 12 (11010048)
I0614 19:57:01.270223 26519 net.cpp:137] Memory required for data: 3424128000
I0614 19:57:01.270226 26519 layer_factory.hpp:77] Creating layer res3_3_res3_3_0_split
I0614 19:57:01.270233 26519 net.cpp:84] Creating Layer res3_3_res3_3_0_split
I0614 19:57:01.270236 26519 net.cpp:406] res3_3_res3_3_0_split <- res3_3
I0614 19:57:01.270241 26519 net.cpp:380] res3_3_res3_3_0_split -> res3_3_res3_3_0_split_0
I0614 19:57:01.270246 26519 net.cpp:380] res3_3_res3_3_0_split -> res3_3_res3_3_0_split_1
I0614 19:57:01.270295 26519 net.cpp:122] Setting up res3_3_res3_3_0_split
I0614 19:57:01.270301 26519 net.cpp:129] Top shape: 256 256 14 12 (11010048)
I0614 19:57:01.270304 26519 net.cpp:129] Top shape: 256 256 14 12 (11010048)
I0614 19:57:01.270306 26519 net.cpp:137] Memory required for data: 3512208384
I0614 19:57:01.270309 26519 layer_factory.hpp:77] Creating layer conv3_4
I0614 19:57:01.270318 26519 net.cpp:84] Creating Layer conv3_4
I0614 19:57:01.270321 26519 net.cpp:406] conv3_4 <- res3_3_res3_3_0_split_0
I0614 19:57:01.270326 26519 net.cpp:380] conv3_4 -> conv3_4
I0614 19:57:01.276204 26519 net.cpp:122] Setting up conv3_4
I0614 19:57:01.276218 26519 net.cpp:129] Top shape: 256 256 14 12 (11010048)
I0614 19:57:01.276221 26519 net.cpp:137] Memory required for data: 3556248576
I0614 19:57:01.276227 26519 layer_factory.hpp:77] Creating layer relu3_4
I0614 19:57:01.276232 26519 net.cpp:84] Creating Layer relu3_4
I0614 19:57:01.276237 26519 net.cpp:406] relu3_4 <- conv3_4
I0614 19:57:01.276242 26519 net.cpp:367] relu3_4 -> conv3_4 (in-place)
I0614 19:57:01.276335 26519 net.cpp:122] Setting up relu3_4
I0614 19:57:01.276342 26519 net.cpp:129] Top shape: 256 256 14 12 (11010048)
I0614 19:57:01.276345 26519 net.cpp:137] Memory required for data: 3600288768
I0614 19:57:01.276348 26519 layer_factory.hpp:77] Creating layer conv3_5
I0614 19:57:01.276356 26519 net.cpp:84] Creating Layer conv3_5
I0614 19:57:01.276360 26519 net.cpp:406] conv3_5 <- conv3_4
I0614 19:57:01.276365 26519 net.cpp:380] conv3_5 -> conv3_5
I0614 19:57:01.282215 26519 net.cpp:122] Setting up conv3_5
I0614 19:57:01.282229 26519 net.cpp:129] Top shape: 256 256 14 12 (11010048)
I0614 19:57:01.282232 26519 net.cpp:137] Memory required for data: 3644328960
I0614 19:57:01.282239 26519 layer_factory.hpp:77] Creating layer relu3_5
I0614 19:57:01.282244 26519 net.cpp:84] Creating Layer relu3_5
I0614 19:57:01.282258 26519 net.cpp:406] relu3_5 <- conv3_5
I0614 19:57:01.282264 26519 net.cpp:367] relu3_5 -> conv3_5 (in-place)
I0614 19:57:01.282361 26519 net.cpp:122] Setting up relu3_5
I0614 19:57:01.282367 26519 net.cpp:129] Top shape: 256 256 14 12 (11010048)
I0614 19:57:01.282369 26519 net.cpp:137] Memory required for data: 3688369152
I0614 19:57:01.282373 26519 layer_factory.hpp:77] Creating layer res3_5
I0614 19:57:01.282378 26519 net.cpp:84] Creating Layer res3_5
I0614 19:57:01.282382 26519 net.cpp:406] res3_5 <- res3_3_res3_3_0_split_1
I0614 19:57:01.282384 26519 net.cpp:406] res3_5 <- conv3_5
I0614 19:57:01.282389 26519 net.cpp:380] res3_5 -> res3_5
I0614 19:57:01.282409 26519 net.cpp:122] Setting up res3_5
I0614 19:57:01.282415 26519 net.cpp:129] Top shape: 256 256 14 12 (11010048)
I0614 19:57:01.282418 26519 net.cpp:137] Memory required for data: 3732409344
I0614 19:57:01.282420 26519 layer_factory.hpp:77] Creating layer res3_5_res3_5_0_split
I0614 19:57:01.282424 26519 net.cpp:84] Creating Layer res3_5_res3_5_0_split
I0614 19:57:01.282428 26519 net.cpp:406] res3_5_res3_5_0_split <- res3_5
I0614 19:57:01.282431 26519 net.cpp:380] res3_5_res3_5_0_split -> res3_5_res3_5_0_split_0
I0614 19:57:01.282440 26519 net.cpp:380] res3_5_res3_5_0_split -> res3_5_res3_5_0_split_1
I0614 19:57:01.282515 26519 net.cpp:122] Setting up res3_5_res3_5_0_split
I0614 19:57:01.282532 26519 net.cpp:129] Top shape: 256 256 14 12 (11010048)
I0614 19:57:01.282536 26519 net.cpp:129] Top shape: 256 256 14 12 (11010048)
I0614 19:57:01.282537 26519 net.cpp:137] Memory required for data: 3820489728
I0614 19:57:01.282541 26519 layer_factory.hpp:77] Creating layer conv3_6
I0614 19:57:01.282548 26519 net.cpp:84] Creating Layer conv3_6
I0614 19:57:01.282552 26519 net.cpp:406] conv3_6 <- res3_5_res3_5_0_split_0
I0614 19:57:01.282557 26519 net.cpp:380] conv3_6 -> conv3_6
I0614 19:57:01.288400 26519 net.cpp:122] Setting up conv3_6
I0614 19:57:01.288414 26519 net.cpp:129] Top shape: 256 256 14 12 (11010048)
I0614 19:57:01.288416 26519 net.cpp:137] Memory required for data: 3864529920
I0614 19:57:01.288422 26519 layer_factory.hpp:77] Creating layer relu3_6
I0614 19:57:01.288442 26519 net.cpp:84] Creating Layer relu3_6
I0614 19:57:01.288445 26519 net.cpp:406] relu3_6 <- conv3_6
I0614 19:57:01.288450 26519 net.cpp:367] relu3_6 -> conv3_6 (in-place)
I0614 19:57:01.288543 26519 net.cpp:122] Setting up relu3_6
I0614 19:57:01.288549 26519 net.cpp:129] Top shape: 256 256 14 12 (11010048)
I0614 19:57:01.288552 26519 net.cpp:137] Memory required for data: 3908570112
I0614 19:57:01.288555 26519 layer_factory.hpp:77] Creating layer conv3_7
I0614 19:57:01.288563 26519 net.cpp:84] Creating Layer conv3_7
I0614 19:57:01.288566 26519 net.cpp:406] conv3_7 <- conv3_6
I0614 19:57:01.288571 26519 net.cpp:380] conv3_7 -> conv3_7
I0614 19:57:01.294425 26519 net.cpp:122] Setting up conv3_7
I0614 19:57:01.294438 26519 net.cpp:129] Top shape: 256 256 14 12 (11010048)
I0614 19:57:01.294442 26519 net.cpp:137] Memory required for data: 3952610304
I0614 19:57:01.294447 26519 layer_factory.hpp:77] Creating layer relu3_7
I0614 19:57:01.294467 26519 net.cpp:84] Creating Layer relu3_7
I0614 19:57:01.294471 26519 net.cpp:406] relu3_7 <- conv3_7
I0614 19:57:01.294477 26519 net.cpp:367] relu3_7 -> conv3_7 (in-place)
I0614 19:57:01.294574 26519 net.cpp:122] Setting up relu3_7
I0614 19:57:01.294579 26519 net.cpp:129] Top shape: 256 256 14 12 (11010048)
I0614 19:57:01.294581 26519 net.cpp:137] Memory required for data: 3996650496
I0614 19:57:01.294584 26519 layer_factory.hpp:77] Creating layer res3_7
I0614 19:57:01.294590 26519 net.cpp:84] Creating Layer res3_7
I0614 19:57:01.294594 26519 net.cpp:406] res3_7 <- res3_5_res3_5_0_split_1
I0614 19:57:01.294596 26519 net.cpp:406] res3_7 <- conv3_7
I0614 19:57:01.294600 26519 net.cpp:380] res3_7 -> res3_7
I0614 19:57:01.294636 26519 net.cpp:122] Setting up res3_7
I0614 19:57:01.294641 26519 net.cpp:129] Top shape: 256 256 14 12 (11010048)
I0614 19:57:01.294656 26519 net.cpp:137] Memory required for data: 4040690688
I0614 19:57:01.294659 26519 layer_factory.hpp:77] Creating layer res3_7_res3_7_0_split
I0614 19:57:01.294673 26519 net.cpp:84] Creating Layer res3_7_res3_7_0_split
I0614 19:57:01.294677 26519 net.cpp:406] res3_7_res3_7_0_split <- res3_7
I0614 19:57:01.294682 26519 net.cpp:380] res3_7_res3_7_0_split -> res3_7_res3_7_0_split_0
I0614 19:57:01.294687 26519 net.cpp:380] res3_7_res3_7_0_split -> res3_7_res3_7_0_split_1
I0614 19:57:01.294744 26519 net.cpp:122] Setting up res3_7_res3_7_0_split
I0614 19:57:01.294749 26519 net.cpp:129] Top shape: 256 256 14 12 (11010048)
I0614 19:57:01.294751 26519 net.cpp:129] Top shape: 256 256 14 12 (11010048)
I0614 19:57:01.294754 26519 net.cpp:137] Memory required for data: 4128771072
I0614 19:57:01.294756 26519 layer_factory.hpp:77] Creating layer conv3_8
I0614 19:57:01.294764 26519 net.cpp:84] Creating Layer conv3_8
I0614 19:57:01.294766 26519 net.cpp:406] conv3_8 <- res3_7_res3_7_0_split_0
I0614 19:57:01.294772 26519 net.cpp:380] conv3_8 -> conv3_8
I0614 19:57:01.301141 26519 net.cpp:122] Setting up conv3_8
I0614 19:57:01.301157 26519 net.cpp:129] Top shape: 256 256 14 12 (11010048)
I0614 19:57:01.301160 26519 net.cpp:137] Memory required for data: 4172811264
I0614 19:57:01.301182 26519 layer_factory.hpp:77] Creating layer relu3_8
I0614 19:57:01.301189 26519 net.cpp:84] Creating Layer relu3_8
I0614 19:57:01.301193 26519 net.cpp:406] relu3_8 <- conv3_8
I0614 19:57:01.301198 26519 net.cpp:367] relu3_8 -> conv3_8 (in-place)
I0614 19:57:01.301298 26519 net.cpp:122] Setting up relu3_8
I0614 19:57:01.301316 26519 net.cpp:129] Top shape: 256 256 14 12 (11010048)
I0614 19:57:01.301318 26519 net.cpp:137] Memory required for data: 4216851456
I0614 19:57:01.301321 26519 layer_factory.hpp:77] Creating layer conv3_9
I0614 19:57:01.301331 26519 net.cpp:84] Creating Layer conv3_9
I0614 19:57:01.301347 26519 net.cpp:406] conv3_9 <- conv3_8
I0614 19:57:01.301353 26519 net.cpp:380] conv3_9 -> conv3_9
I0614 19:57:01.307337 26519 net.cpp:122] Setting up conv3_9
I0614 19:57:01.307353 26519 net.cpp:129] Top shape: 256 256 14 12 (11010048)
I0614 19:57:01.307356 26519 net.cpp:137] Memory required for data: 4260891648
I0614 19:57:01.307361 26519 layer_factory.hpp:77] Creating layer relu3_9
I0614 19:57:01.307366 26519 net.cpp:84] Creating Layer relu3_9
I0614 19:57:01.307370 26519 net.cpp:406] relu3_9 <- conv3_9
I0614 19:57:01.307375 26519 net.cpp:367] relu3_9 -> conv3_9 (in-place)
I0614 19:57:01.307471 26519 net.cpp:122] Setting up relu3_9
I0614 19:57:01.307477 26519 net.cpp:129] Top shape: 256 256 14 12 (11010048)
I0614 19:57:01.307480 26519 net.cpp:137] Memory required for data: 4304931840
I0614 19:57:01.307483 26519 layer_factory.hpp:77] Creating layer res3_9
I0614 19:57:01.307488 26519 net.cpp:84] Creating Layer res3_9
I0614 19:57:01.307492 26519 net.cpp:406] res3_9 <- res3_7_res3_7_0_split_1
I0614 19:57:01.307495 26519 net.cpp:406] res3_9 <- conv3_9
I0614 19:57:01.307499 26519 net.cpp:380] res3_9 -> res3_9
I0614 19:57:01.307520 26519 net.cpp:122] Setting up res3_9
I0614 19:57:01.307525 26519 net.cpp:129] Top shape: 256 256 14 12 (11010048)
I0614 19:57:01.307528 26519 net.cpp:137] Memory required for data: 4348972032
I0614 19:57:01.307530 26519 layer_factory.hpp:77] Creating layer conv4_1
I0614 19:57:01.307538 26519 net.cpp:84] Creating Layer conv4_1
I0614 19:57:01.307540 26519 net.cpp:406] conv4_1 <- res3_9
I0614 19:57:01.307546 26519 net.cpp:380] conv4_1 -> conv4_1
I0614 19:57:01.314260 26519 net.cpp:122] Setting up conv4_1
I0614 19:57:01.314276 26519 net.cpp:129] Top shape: 256 512 7 6 (5505024)
I0614 19:57:01.314280 26519 net.cpp:137] Memory required for data: 4370992128
I0614 19:57:01.314301 26519 layer_factory.hpp:77] Creating layer relu4_1
I0614 19:57:01.314306 26519 net.cpp:84] Creating Layer relu4_1
I0614 19:57:01.314311 26519 net.cpp:406] relu4_1 <- conv4_1
I0614 19:57:01.314316 26519 net.cpp:367] relu4_1 -> conv4_1 (in-place)
I0614 19:57:01.314402 26519 net.cpp:122] Setting up relu4_1
I0614 19:57:01.314409 26519 net.cpp:129] Top shape: 256 512 7 6 (5505024)
I0614 19:57:01.314410 26519 net.cpp:137] Memory required for data: 4393012224
I0614 19:57:01.314425 26519 layer_factory.hpp:77] Creating layer conv4_1_relu4_1_0_split
I0614 19:57:01.314431 26519 net.cpp:84] Creating Layer conv4_1_relu4_1_0_split
I0614 19:57:01.314435 26519 net.cpp:406] conv4_1_relu4_1_0_split <- conv4_1
I0614 19:57:01.314438 26519 net.cpp:380] conv4_1_relu4_1_0_split -> conv4_1_relu4_1_0_split_0
I0614 19:57:01.314445 26519 net.cpp:380] conv4_1_relu4_1_0_split -> conv4_1_relu4_1_0_split_1
I0614 19:57:01.314476 26519 net.cpp:122] Setting up conv4_1_relu4_1_0_split
I0614 19:57:01.314481 26519 net.cpp:129] Top shape: 256 512 7 6 (5505024)
I0614 19:57:01.314483 26519 net.cpp:129] Top shape: 256 512 7 6 (5505024)
I0614 19:57:01.314486 26519 net.cpp:137] Memory required for data: 4437052416
I0614 19:57:01.314488 26519 layer_factory.hpp:77] Creating layer conv4_2
I0614 19:57:01.314497 26519 net.cpp:84] Creating Layer conv4_2
I0614 19:57:01.314501 26519 net.cpp:406] conv4_2 <- conv4_1_relu4_1_0_split_0
I0614 19:57:01.314504 26519 net.cpp:380] conv4_2 -> conv4_2
I0614 19:57:01.333717 26519 net.cpp:122] Setting up conv4_2
I0614 19:57:01.333734 26519 net.cpp:129] Top shape: 256 512 7 6 (5505024)
I0614 19:57:01.333737 26519 net.cpp:137] Memory required for data: 4459072512
I0614 19:57:01.333757 26519 layer_factory.hpp:77] Creating layer relu4_2
I0614 19:57:01.333765 26519 net.cpp:84] Creating Layer relu4_2
I0614 19:57:01.333767 26519 net.cpp:406] relu4_2 <- conv4_2
I0614 19:57:01.333772 26519 net.cpp:367] relu4_2 -> conv4_2 (in-place)
I0614 19:57:01.333859 26519 net.cpp:122] Setting up relu4_2
I0614 19:57:01.333866 26519 net.cpp:129] Top shape: 256 512 7 6 (5505024)
I0614 19:57:01.333869 26519 net.cpp:137] Memory required for data: 4481092608
I0614 19:57:01.333873 26519 layer_factory.hpp:77] Creating layer conv4_3
I0614 19:57:01.333880 26519 net.cpp:84] Creating Layer conv4_3
I0614 19:57:01.333884 26519 net.cpp:406] conv4_3 <- conv4_2
I0614 19:57:01.333889 26519 net.cpp:380] conv4_3 -> conv4_3
I0614 19:57:01.352649 26519 net.cpp:122] Setting up conv4_3
I0614 19:57:01.352666 26519 net.cpp:129] Top shape: 256 512 7 6 (5505024)
I0614 19:57:01.352670 26519 net.cpp:137] Memory required for data: 4503112704
I0614 19:57:01.352690 26519 layer_factory.hpp:77] Creating layer relu4_3
I0614 19:57:01.352699 26519 net.cpp:84] Creating Layer relu4_3
I0614 19:57:01.352701 26519 net.cpp:406] relu4_3 <- conv4_3
I0614 19:57:01.352707 26519 net.cpp:367] relu4_3 -> conv4_3 (in-place)
I0614 19:57:01.353488 26519 net.cpp:122] Setting up relu4_3
I0614 19:57:01.353498 26519 net.cpp:129] Top shape: 256 512 7 6 (5505024)
I0614 19:57:01.353500 26519 net.cpp:137] Memory required for data: 4525132800
I0614 19:57:01.353505 26519 layer_factory.hpp:77] Creating layer res4_3
I0614 19:57:01.353525 26519 net.cpp:84] Creating Layer res4_3
I0614 19:57:01.353529 26519 net.cpp:406] res4_3 <- conv4_1_relu4_1_0_split_1
I0614 19:57:01.353533 26519 net.cpp:406] res4_3 <- conv4_3
I0614 19:57:01.353538 26519 net.cpp:380] res4_3 -> res4_3
I0614 19:57:01.353561 26519 net.cpp:122] Setting up res4_3
I0614 19:57:01.353566 26519 net.cpp:129] Top shape: 256 512 7 6 (5505024)
I0614 19:57:01.353569 26519 net.cpp:137] Memory required for data: 4547152896
I0614 19:57:01.353571 26519 layer_factory.hpp:77] Creating layer fc5
I0614 19:57:01.353579 26519 net.cpp:84] Creating Layer fc5
I0614 19:57:01.353581 26519 net.cpp:406] fc5 <- res4_3
I0614 19:57:01.353586 26519 net.cpp:380] fc5 -> fc5
I0614 19:57:01.403530 26519 net.cpp:122] Setting up fc5
I0614 19:57:01.403548 26519 net.cpp:129] Top shape: 256 512 (131072)
I0614 19:57:01.403549 26519 net.cpp:137] Memory required for data: 4547677184
I0614 19:57:01.403571 26519 layer_factory.hpp:77] Creating layer norm1
I0614 19:57:01.403578 26519 net.cpp:84] Creating Layer norm1
I0614 19:57:01.403583 26519 net.cpp:406] norm1 <- fc5
I0614 19:57:01.403589 26519 net.cpp:380] norm1 -> norm1
I0614 19:57:01.403638 26519 net.cpp:122] Setting up norm1
I0614 19:57:01.403643 26519 net.cpp:129] Top shape: 256 512 1 1 (131072)
I0614 19:57:01.403645 26519 net.cpp:137] Memory required for data: 4548201472
I0614 19:57:01.403648 26519 layer_factory.hpp:77] Creating layer fc6_l2
I0614 19:57:01.403664 26519 net.cpp:84] Creating Layer fc6_l2
I0614 19:57:01.403667 26519 net.cpp:406] fc6_l2 <- norm1
I0614 19:57:01.403671 26519 net.cpp:380] fc6_l2 -> fc6
I0614 19:57:01.404000 26519 net.cpp:122] Setting up fc6_l2
I0614 19:57:01.404006 26519 net.cpp:129] Top shape: 256 100 (25600)
I0614 19:57:01.404007 26519 net.cpp:137] Memory required for data: 4548303872
I0614 19:57:01.404011 26519 layer_factory.hpp:77] Creating layer label_specific_margin
I0614 19:57:01.404016 26519 net.cpp:84] Creating Layer label_specific_margin
I0614 19:57:01.404033 26519 net.cpp:406] label_specific_margin <- fc6
I0614 19:57:01.404037 26519 net.cpp:406] label_specific_margin <- label_data_1_split_0
I0614 19:57:01.404044 26519 net.cpp:380] label_specific_margin -> fc6_margin
I0614 19:57:01.404067 26519 net.cpp:122] Setting up label_specific_margin
I0614 19:57:01.404072 26519 net.cpp:129] Top shape: 256 100 (25600)
I0614 19:57:01.404074 26519 net.cpp:137] Memory required for data: 4548406272
I0614 19:57:01.404076 26519 layer_factory.hpp:77] Creating layer fc6_margin_scale
I0614 19:57:01.404083 26519 net.cpp:84] Creating Layer fc6_margin_scale
I0614 19:57:01.404085 26519 net.cpp:406] fc6_margin_scale <- fc6_margin
I0614 19:57:01.404090 26519 net.cpp:380] fc6_margin_scale -> fc6_margin_scale
I0614 19:57:01.404196 26519 net.cpp:122] Setting up fc6_margin_scale
I0614 19:57:01.404201 26519 net.cpp:129] Top shape: 256 100 (25600)
I0614 19:57:01.404214 26519 net.cpp:137] Memory required for data: 4548508672
I0614 19:57:01.404218 26519 layer_factory.hpp:77] Creating layer softmax_loss
I0614 19:57:01.404237 26519 net.cpp:84] Creating Layer softmax_loss
I0614 19:57:01.404240 26519 net.cpp:406] softmax_loss <- fc6_margin_scale
I0614 19:57:01.404243 26519 net.cpp:406] softmax_loss <- label_data_1_split_1
I0614 19:57:01.404248 26519 net.cpp:380] softmax_loss -> softmax_loss
…
I0614 19:57:01.405747 26519 net.cpp:294] The NetState phase (1) differed from the phase (0) specified by a rule in layer data
I0614 19:57:01.406020 26519 net.cpp:51] Initializing net from parameters: 
name: "Face-ResNet"
state {
  phase: TEST
}
layer {
  name: "data"
  type: "ImageData"
  top: "data"
  top: "label"
  include {
    phase: TEST
  }
  transform_param {
    scale: 0.0078125
    mirror: true
    mean_value: 128
  }
  image_data_param {
    source: "/home/wujiyang/data/vggface2/val.txt"
    batch_size: 32
    shuffle: true
    root_folder: "/home/wujiyang/data/vggface2/"
  }
}
layer {
  name: "conv1_1"
  type: "Convolution"
  bottom: "data"
  top: "conv1_1"
  param {
    lr_mult: 1
    decay_mult: 1
  }
  param {
    lr_mult: 2
    decay_mult: 0
  }
  convolution_param {
    num_output: 64
    pad: 1
    kernel_size: 3
    stride: 2
    weight_filler {
      type: "xavier"
    }
    bias_filler {
      type: "constant"
      value: 0
    }
  }
}
layer {
  name: "relu1_1"
  type: "PReLU"
  bottom: "conv1_1"
  top: "conv1_1"
}
layer {
  name: "conv1_2"
  type: "Convolution"
  bottom: "conv1_1"
  top: "conv1_2"
  param {
    lr_mult: 1
    decay_mult: 1
  }
  param {
    lr_mult: 0
    decay_mult: 0
  }
  convolution_param {
    num_output: 64
    pad: 1
    kernel_size: 3
    stride: 1
    weight_filler {
      type: "gaussian"
      std: 0.01
    }
    bias_filler {
      type: "constant"
      value: 0
    }
  }
}
layer {
  name: "relu1_2"
  type: "PReLU"
  bottom: "conv1_2"
  top: "conv1_2"
}
layer {
  name: "conv1_3"
  type: "Convolution"
  bottom: "conv1_2"
  top: "conv1_3"
  param {
    lr_mult: 1
    decay_mult: 1
  }
  param {
    lr_mult: 0
    decay_mult: 0
  }
  convolution_param {
    num_output: 64
    pad: 1
    kernel_size: 3
    stride: 1
    weight_filler {
      type: "gaussian"
      std: 0.01
    }
    bias_filler {
      type: "constant"
      value: 0
    }
  }
}
layer {
  name: "relu1_3"
  type: "PReLU"
  bottom: "conv1_3"
  top: "conv1_3"
}
layer {
  name: "res1_3"
  type: "Eltwise"
  bottom: "conv1_1"
  bottom: "conv1_3"
  top: "res1_3"
  eltwise_param {
    operation: SUM
  }
}
layer {
  name: "conv2_1"
  type: "Convolution"
  bottom: "res1_3"
  top: "conv2_1"
  param {
    lr_mult: 1
    decay_mult: 1
  }
  param {
    lr_mult: 2
    decay_mult: 0
  }
  convolution_param {
    num_output: 128
    pad: 1
    kernel_size: 3
    stride: 2
    weight_filler {
      type: "xavier"
    }
    bias_filler {
      type: "constant"
      value: 0
    }
  }
}
layer {
  name: "relu2_1"
  type: "PReLU"
  bottom: "conv2_1"
  top: "conv2_1"
}
layer {
  name: "conv2_2"
  type: "Convolution"
  bottom: "conv2_1"
  top: "conv2_2"
  param {
    lr_mult: 1
    decay_mult: 1
  }
  param {
    lr_mult: 0
    decay_mult: 0
  }
  convolution_param {
    num_output: 128
    pad: 1
    kernel_size: 3
    stride: 1
    weight_filler {
      type: "gaussian"
      std: 0.01
    }
    bias_filler {
      type: "constant"
      value: 0
    }
  }
}
layer {
  name: "relu2_2"
  type: "PReLU"
  bottom: "conv2_2"
  top: "conv2_2"
}
layer {
  name: "conv2_3"
  type: "Convolution"
  bottom: "conv2_2"
  top: "conv2_3"
  param {
    lr_mult: 1
    decay_mult: 1
  }
  param {
    lr_mult: 0
    decay_mult: 0
  }
  convolution_param {
    num_output: 128
    pad: 1
    kernel_size: 3
    stride: 1
    weight_filler {
      type: "gaussian"
      std: 0.01
    }
    bias_filler {
      type: "constant"
      value: 0
    }
  }
}
layer {
  name: "relu2_3"
  type: "PReLU"
  bottom: "conv2_3"
  top: "conv2_3"
}
layer {
  name: "res2_3"
  type: "Eltwise"
  bottom: "conv2_1"
  bottom: "conv2_3"
  top: "res2_3"
  eltwise_param {
    operation: SUM
  }
}
layer {
  name: "conv2_4"
  type: "Convolution"
  bottom: "res2_3"
  top: "conv2_4"
  param {
    lr_mult: 1
    decay_mult: 1
  }
  param {
    lr_mult: 0
    decay_mult: 0
  }
  convolution_param {
    num_output: 128
    pad: 1
    kernel_size: 3
    stride: 1
    weight_filler {
      type: "gaussian"
      std: 0.01
    }
    bias_filler {
      type: "constant"
      value: 0
    }
  }
}
layer {
  name: "relu2_4"
  type: "PReLU"
  bottom: "conv2_4"
  top: "conv2_4"
}
layer {
  name: "conv2_5"
  type: "Convolution"
  bottom: "conv2_4"
  top: "conv2_5"
  param {
    lr_mult: 1
    decay_mult: 1
  }
  param {
    lr_mult: 0
    decay_mult: 0
  }
  convolution_param {
    num_output: 128
    pad: 1
    kernel_size: 3
    stride: 1
    weight_filler {
      type: "gaussian"
      std: 0.01
    }
    bias_filler {
      type: "constant"
      value: 0
    }
  }
}
layer {
  name: "relu2_5"
  type: "PReLU"
  bottom: "conv2_5"
  top: "conv2_5"
}
layer {
  name: "res2_5"
  type: "Eltwise"
  bottom: "res2_3"
  bottom: "conv2_5"
  top: "res2_5"
  eltwise_param {
    operation: SUM
  }
}
layer {
  name: "conv3_1"
  type: "Convolution"
  bottom: "res2_5"
  top: "conv3_1"
  param {
    lr_mult: 1
    decay_mult: 1
  }
  param {
    lr_mult: 2
    decay_mult: 0
  }
  convolution_param {
    num_output: 256
    pad: 1
    kernel_size: 3
    stride: 2
    weight_filler {
      type: "xavier"
    }
    bias_filler {
      type: "constant"
      value: 0
    }
  }
}
layer {
  name: "relu3_1"
  type: "PReLU"
  bottom: "conv3_1"
  top: "conv3_1"
}
layer {
  name: "conv3_2"
  type: "Convolution"
  bottom: "conv3_1"
  top: "conv3_2"
  param {
    lr_mult: 1
    decay_mult: 1
  }
  param {
    lr_mult: 0
    decay_mult: 0
  }
  convolution_param {
    num_output: 256
    pad: 1
    kernel_size: 3
    stride: 1
    weight_filler {
      type: "gaussian"
      std: 0.01
    }
    bias_filler {
      type: "constant"
      value: 0
    }
  }
}
layer {
  name: "relu3_2"
  type: "PReLU"
  bottom: "conv3_2"
  top: "conv3_2"
}
layer {
  name: "conv3_3"
  type: "Convolution"
  bottom: "conv3_2"
  top: "conv3_3"
  param {
    lr_mult: 1
    decay_mult: 1
  }
  param {
    lr_mult: 0
    decay_mult: 0
  }
  convolution_param {
    num_output: 256
    pad: 1
    kernel_size: 3
    stride: 1
    weight_filler {
      type: "gaussian"
      std: 0.01
    }
    bias_filler {
      type: "constant"
      value: 0
    }
  }
}
layer {
  name: "relu3_3"
  type: "PReLU"
  bottom: "conv3_3"
  top: "conv3_3"
}
layer {
  name: "res3_3"
  type: "Eltwise"
  bottom: "conv3_1"
  bottom: "conv3_3"
  top: "res3_3"
  eltwise_param {
    operation: SUM
  }
}
layer {
  name: "conv3_4"
  type: "Convolution"
  bottom: "res3_3"
  top: "conv3_4"
  param {
    lr_mult: 1
    decay_mult: 1
  }
  param {
    lr_mult: 0
    decay_mult: 0
  }
  convolution_param {
    num_output: 256
    pad: 1
    kernel_size: 3
    stride: 1
    weight_filler {
      type: "gaussian"
      std: 0.01
    }
    bias_filler {
      type: "constant"
      value: 0
    }
  }
}
layer {
  name: "relu3_4"
  type: "PReLU"
  bottom: "conv3_4"
  top: "conv3_4"
}
layer {
  name: "conv3_5"
  type: "Convolution"
  bottom: "conv3_4"
  top: "conv3_5"
  param {
    lr_mult: 1
    decay_mult: 1
  }
  param {
    lr_mult: 0
    decay_mult: 0
  }
  convolution_param {
    num_output: 256
    pad: 1
    kernel_size: 3
    stride: 1
    weight_filler {
      type: "gaussian"
      std: 0.01
    }
    bias_filler {
      type: "constant"
      value: 0
    }
  }
}
layer {
  name: "relu3_5"
  type: "PReLU"
  bottom: "conv3_5"
  top: "conv3_5"
}
layer {
  name: "res3_5"
  type: "Eltwise"
  bottom: "res3_3"
  bottom: "conv3_5"
  top: "res3_5"
  eltwise_param {
    operation: SUM
  }
}
layer {
  name: "conv3_6"
  type: "Convolution"
  bottom: "res3_5"
  top: "conv3_6"
  param {
    lr_mult: 1
    decay_mult: 1
  }
  param {
    lr_mult: 0
    decay_mult: 0
  }
  convolution_param {
    num_output: 256
    pad: 1
    kernel_size: 3
    stride: 1
    weight_filler {
      type: "gaussian"
      std: 0.01
    }
    bias_filler {
      type: "constant"
      value: 0
    }
  }
}
layer {
  name: "relu3_6"
  type: "PReLU"
  bottom: "conv3_6"
  top: "conv3_6"
}
layer {
  name: "conv3_7"
  type: "Convolution"
  bottom: "conv3_6"
  top: "conv3_7"
  param {
    lr_mult: 1
    decay_mult: 1
  }
  param {
    lr_mult: 0
    decay_mult: 0
  }
  convolution_param {
    num_output: 256
    pad: 1
    kernel_size: 3
    stride: 1
    weight_filler {
      type: "gaussian"
      std: 0.01
    }
    bias_filler {
      type: "constant"
      value: 0
    }
  }
}
layer {
  name: "relu3_7"
  type: "PReLU"
  bottom: "conv3_7"
  top: "conv3_7"
}
layer {
  name: "res3_7"
  type: "Eltwise"
  bottom: "res3_5"
  bottom: "conv3_7"
  top: "res3_7"
  eltwise_param {
    operation: SUM
  }
}
layer {
  name: "conv3_8"
  type: "Convolution"
  bottom: "res3_7"
  top: "conv3_8"
  param {
    lr_mult: 1
    decay_mult: 1
  }
  param {
    lr_mult: 0
    decay_mult: 0
  }
  convolution_param {
    num_output: 256
    pad: 1
    kernel_size: 3
    stride: 1
    weight_filler {
      type: "gaussian"
      std: 0.01
    }
    bias_filler {
      type: "constant"
      value: 0
    }
  }
}
layer {
  name: "relu3_8"
  type: "PReLU"
  bottom: "conv3_8"
  top: "conv3_8"
}
layer {
  name: "conv3_9"
  type: "Convolution"
  bottom: "conv3_8"
  top: "conv3_9"
  param {
    lr_mult: 1
    decay_mult: 1
  }
  param {
    lr_mult: 0
    decay_mult: 0
  }
  convolution_param {
    num_output: 256
    pad: 1
    kernel_size: 3
    stride: 1
    weight_filler {
      type: "gaussian"
      std: 0.01
    }
    bias_filler {
      type: "constant"
      value: 0
    }
  }
}
layer {
  name: "relu3_9"
  type: "PReLU"
  bottom: "conv3_9"
  top: "conv3_9"
}
layer {
  name: "res3_9"
  type: "Eltwise"
  bottom: "res3_7"
  bottom: "conv3_9"
  top: "res3_9"
  eltwise_param {
    operation: SUM
  }
}
layer {
  name: "conv4_1"
  type: "Convolution"
  bottom: "res3_9"
  top: "conv4_1"
  param {
    lr_mult: 1
    decay_mult: 1
  }
  param {
    lr_mult: 2
    decay_mult: 0
  }
  convolution_param {
    num_output: 512
    pad: 1
    kernel_size: 3
    stride: 2
    weight_filler {
      type: "xavier"
    }
    bias_filler {
      type: "constant"
      value: 0
    }
  }
}
layer {
  name: "relu4_1"
  type: "PReLU"
  bottom: "conv4_1"
  top: "conv4_1"
}
layer {
  name: "conv4_2"
  type: "Convolution"
  bottom: "conv4_1"
  top: "conv4_2"
  param {
    lr_mult: 1
    decay_mult: 1
  }
  param {
    lr_mult: 0
    decay_mult: 0
  }
  convolution_param {
    num_output: 512
    pad: 1
    kernel_size: 3
    stride: 1
    weight_filler {
      type: "gaussian"
      std: 0.01
    }
    bias_filler {
      type: "constant"
      value: 0
    }
  }
}
layer {
  name: "relu4_2"
  type: "PReLU"
  bottom: "conv4_2"
  top: "conv4_2"
}
layer {
  name: "conv4_3"
  type: "Convolution"
  bottom: "conv4_2"
  top: "conv4_3"
  param {
    lr_mult: 1
    decay_mult: 1
  }
  param {
    lr_mult: 0
    decay_mult: 0
  }
  convolution_param {
    num_output: 512
    pad: 1
    kernel_size: 3
    stride: 1
    weight_filler {
      type: "gaussian"
      std: 0.01
    }
    bias_filler {
      type: "constant"
      value: 0
    }
  }
}
layer {
  name: "relu4_3"
  type: "PReLU"
  bottom: "conv4_3"
  top: "conv4_3"
}
layer {
  name: "res4_3"
  type: "Eltwise"
  bottom: "conv4_1"
  bottom: "conv4_3"
  top: "res4_3"
  eltwise_param {
    operation: SUM
  }
}
layer {
  name: "fc5"
  type: "InnerProduct"
  bottom: "res4_3"
  top: "fc5"
  param {
    lr_mult: 1
    decay_mult: 1
  }
  param {
    lr_mult: 2
    decay_mult: 0
  }
  inner_product_param {
    num_output: 512
    weight_filler {
      type: "xavier"
    }
    bias_filler {
      type: "constant"
      value: 0
    }
  }
}
layer {
  name: "norm1"
  type: "Normalize"
  bottom: "fc5"
  top: "norm1"
}
layer {
  name: "fc6_l2"
  type: "InnerProduct"
  bottom: "norm1"
  top: "fc6"
  param {
    lr_mult: 1
  }
  inner_product_param {
    num_output: 100
    bias_term: false
    weight_filler {
      type: "xavier"
    }
    normalize: true
  }
}
layer {
  name: "label_specific_margin"
  type: "LabelSpecificAdd"
  bottom: "fc6"
  bottom: "label"
  top: "fc6_margin"
  label_specific_add_param {
    bias: -0.35
  }
}
layer {
  name: "fc6_margin_scale"
  type: "Scale"
  bottom: "fc6_margin"
  top: "fc6_margin_scale"
  param {
    lr_mult: 0
    decay_mult: 0
  }
  scale_param {
    filler {
      type: "constant"
      value: 30
    }
  }
}
layer {
  name: "softmax_loss"
  type: "SoftmaxWithLoss"
  bottom: "fc6_margin_scale"
  bottom: "label"
  top: "softmax_loss"
  loss_weight: 1
}
layer {
  name: "Accuracy"
  type: "Accuracy"
  bottom: "fc6"
  bottom: "label"
  top: "accuracy"
  include {
    phase: TEST
  }
}
I0614 19:57:01.406206 26519 layer_factory.hpp:77] Creating layer data
I0614 19:57:01.406217 26519 net.cpp:84] Creating Layer data
I0614 19:57:01.406221 26519 net.cpp:380] data -> data
I0614 19:57:01.406229 26519 net.cpp:380] data -> label
I0614 19:57:01.406237 26519 image_data_layer.cpp:38] Opening file /home/wujiyang/data/vggface2/val.txt
I0614 19:57:01.406327 26519 image_data_layer.cpp:53] Shuffling data
I0614 19:57:01.406339 26519 image_data_layer.cpp:63] A total of 500 images.
I0614 19:57:01.406551 26519 image_data_layer.cpp:90] output data size: 32,3,112,96
I0614 19:57:01.413978 26519 net.cpp:122] Setting up data
I0614 19:57:01.413997 26519 net.cpp:129] Top shape: 32 3 112 96 (1032192)
I0614 19:57:01.414016 26519 net.cpp:129] Top shape: 32 (32)
I0614 19:57:01.414018 26519 net.cpp:137] Memory required for data: 4128896
I0614 19:57:01.414022 26519 layer_factory.hpp:77] Creating layer label_data_1_split
I0614 19:57:01.414032 26519 net.cpp:84] Creating Layer label_data_1_split
I0614 19:57:01.414036 26519 net.cpp:406] label_data_1_split <- label
I0614 19:57:01.414041 26519 net.cpp:380] label_data_1_split -> label_data_1_split_0
I0614 19:57:01.414049 26519 net.cpp:380] label_data_1_split -> label_data_1_split_1
I0614 19:57:01.414055 26519 net.cpp:380] label_data_1_split -> label_data_1_split_2
I0614 19:57:01.414180 26519 net.cpp:122] Setting up label_data_1_split
I0614 19:57:01.414191 26519 net.cpp:129] Top shape: 32 (32)
I0614 19:57:01.414194 26519 net.cpp:129] Top shape: 32 (32)
I0614 19:57:01.414212 26519 net.cpp:129] Top shape: 32 (32)
I0614 19:57:01.414214 26519 net.cpp:137] Memory required for data: 4129280
I0614 19:57:01.414217 26519 layer_factory.hpp:77] Creating layer conv1_1
I0614 19:57:01.414232 26519 net.cpp:84] Creating Layer conv1_1
I0614 19:57:01.414237 26519 net.cpp:406] conv1_1 <- data
I0614 19:57:01.414242 26519 net.cpp:380] conv1_1 -> conv1_1
I0614 19:57:01.415762 26519 net.cpp:122] Setting up conv1_1
I0614 19:57:01.415776 26519 net.cpp:129] Top shape: 32 64 56 48 (5505024)
I0614 19:57:01.415779 26519 net.cpp:137] Memory required for data: 26149376
I0614 19:57:01.415788 26519 layer_factory.hpp:77] Creating layer relu1_1
I0614 19:57:01.415796 26519 net.cpp:84] Creating Layer relu1_1
I0614 19:57:01.415798 26519 net.cpp:406] relu1_1 <- conv1_1
I0614 19:57:01.415802 26519 net.cpp:367] relu1_1 -> conv1_1 (in-place)
I0614 19:57:01.415972 26519 net.cpp:122] Setting up relu1_1
I0614 19:57:01.415978 26519 net.cpp:129] Top shape: 32 64 56 48 (5505024)
I0614 19:57:01.415980 26519 net.cpp:137] Memory required for data: 48169472
I0614 19:57:01.415985 26519 layer_factory.hpp:77] Creating layer conv1_1_relu1_1_0_split
I0614 19:57:01.415992 26519 net.cpp:84] Creating Layer conv1_1_relu1_1_0_split
I0614 19:57:01.415995 26519 net.cpp:406] conv1_1_relu1_1_0_split <- conv1_1
I0614 19:57:01.415999 26519 net.cpp:380] conv1_1_relu1_1_0_split -> conv1_1_relu1_1_0_split_0
I0614 19:57:01.416005 26519 net.cpp:380] conv1_1_relu1_1_0_split -> conv1_1_relu1_1_0_split_1
I0614 19:57:01.416041 26519 net.cpp:122] Setting up conv1_1_relu1_1_0_split
I0614 19:57:01.416048 26519 net.cpp:129] Top shape: 32 64 56 48 (5505024)
I0614 19:57:01.416050 26519 net.cpp:129] Top shape: 32 64 56 48 (5505024)
I0614 19:57:01.416054 26519 net.cpp:137] Memory required for data: 92209664
I0614 19:57:01.416055 26519 layer_factory.hpp:77] Creating layer conv1_2
I0614 19:57:01.416065 26519 net.cpp:84] Creating Layer conv1_2
I0614 19:57:01.416069 26519 net.cpp:406] conv1_2 <- conv1_1_relu1_1_0_split_0
I0614 19:57:01.416074 26519 net.cpp:380] conv1_2 -> conv1_2
I0614 19:57:01.417582 26519 net.cpp:122] Setting up conv1_2
I0614 19:57:01.417608 26519 net.cpp:129] Top shape: 32 64 56 48 (5505024)
I0614 19:57:01.417610 26519 net.cpp:137] Memory required for data: 114229760
I0614 19:57:01.417619 26519 layer_factory.hpp:77] Creating layer relu1_2
I0614 19:57:01.417626 26519 net.cpp:84] Creating Layer relu1_2
I0614 19:57:01.417629 26519 net.cpp:406] relu1_2 <- conv1_2
I0614 19:57:01.417634 26519 net.cpp:367] relu1_2 -> conv1_2 (in-place)
I0614 19:57:01.417862 26519 net.cpp:122] Setting up relu1_2
I0614 19:57:01.417882 26519 net.cpp:129] Top shape: 32 64 56 48 (5505024)
I0614 19:57:01.417886 26519 net.cpp:137] Memory required for data: 136249856
I0614 19:57:01.417888 26519 layer_factory.hpp:77] Creating layer conv1_3
I0614 19:57:01.417909 26519 net.cpp:84] Creating Layer conv1_3
I0614 19:57:01.417937 26519 net.cpp:406] conv1_3 <- conv1_2
I0614 19:57:01.417944 26519 net.cpp:380] conv1_3 -> conv1_3
I0614 19:57:01.419410 26519 net.cpp:122] Setting up conv1_3
I0614 19:57:01.419422 26519 net.cpp:129] Top shape: 32 64 56 48 (5505024)
I0614 19:57:01.419425 26519 net.cpp:137] Memory required for data: 158269952
I0614 19:57:01.419431 26519 layer_factory.hpp:77] Creating layer relu1_3
I0614 19:57:01.419438 26519 net.cpp:84] Creating Layer relu1_3
I0614 19:57:01.419442 26519 net.cpp:406] relu1_3 <- conv1_3
I0614 19:57:01.419446 26519 net.cpp:367] relu1_3 -> conv1_3 (in-place)
I0614 19:57:01.420323 26519 net.cpp:122] Setting up relu1_3
I0614 19:57:01.420334 26519 net.cpp:129] Top shape: 32 64 56 48 (5505024)
I0614 19:57:01.420338 26519 net.cpp:137] Memory required for data: 180290048
I0614 19:57:01.420344 26519 layer_factory.hpp:77] Creating layer res1_3
I0614 19:57:01.420351 26519 net.cpp:84] Creating Layer res1_3
I0614 19:57:01.420354 26519 net.cpp:406] res1_3 <- conv1_1_relu1_1_0_split_1
I0614 19:57:01.420358 26519 net.cpp:406] res1_3 <- conv1_3
I0614 19:57:01.420362 26519 net.cpp:380] res1_3 -> res1_3
I0614 19:57:01.420400 26519 net.cpp:122] Setting up res1_3
I0614 19:57:01.420419 26519 net.cpp:129] Top shape: 32 64 56 48 (5505024)
I0614 19:57:01.420423 26519 net.cpp:137] Memory required for data: 202310144
I0614 19:57:01.420424 26519 layer_factory.hpp:77] Creating layer conv2_1
I0614 19:57:01.420447 26519 net.cpp:84] Creating Layer conv2_1
I0614 19:57:01.420449 26519 net.cpp:406] conv2_1 <- res1_3
I0614 19:57:01.420456 26519 net.cpp:380] conv2_1 -> conv2_1
I0614 19:57:01.421794 26519 net.cpp:122] Setting up conv2_1
I0614 19:57:01.421804 26519 net.cpp:129] Top shape: 32 128 28 24 (2752512)
I0614 19:57:01.421808 26519 net.cpp:137] Memory required for data: 213320192
I0614 19:57:01.421813 26519 layer_factory.hpp:77] Creating layer relu2_1
I0614 19:57:01.421818 26519 net.cpp:84] Creating Layer relu2_1
I0614 19:57:01.421820 26519 net.cpp:406] relu2_1 <- conv2_1
I0614 19:57:01.421824 26519 net.cpp:367] relu2_1 -> conv2_1 (in-place)
I0614 19:57:01.421972 26519 net.cpp:122] Setting up relu2_1
I0614 19:57:01.421978 26519 net.cpp:129] Top shape: 32 128 28 24 (2752512)
I0614 19:57:01.421980 26519 net.cpp:137] Memory required for data: 224330240
I0614 19:57:01.421983 26519 layer_factory.hpp:77] Creating layer conv2_1_relu2_1_0_split
I0614 19:57:01.421990 26519 net.cpp:84] Creating Layer conv2_1_relu2_1_0_split
I0614 19:57:01.421993 26519 net.cpp:406] conv2_1_relu2_1_0_split <- conv2_1
I0614 19:57:01.421998 26519 net.cpp:380] conv2_1_relu2_1_0_split -> conv2_1_relu2_1_0_split_0
I0614 19:57:01.422003 26519 net.cpp:380] conv2_1_relu2_1_0_split -> conv2_1_relu2_1_0_split_1
I0614 19:57:01.422061 26519 net.cpp:122] Setting up conv2_1_relu2_1_0_split
I0614 19:57:01.422080 26519 net.cpp:129] Top shape: 32 128 28 24 (2752512)
I0614 19:57:01.422083 26519 net.cpp:129] Top shape: 32 128 28 24 (2752512)
I0614 19:57:01.422086 26519 net.cpp:137] Memory required for data: 246350336
I0614 19:57:01.422088 26519 layer_factory.hpp:77] Creating layer conv2_2
I0614 19:57:01.422096 26519 net.cpp:84] Creating Layer conv2_2
I0614 19:57:01.422098 26519 net.cpp:406] conv2_2 <- conv2_1_relu2_1_0_split_0
I0614 19:57:01.422103 26519 net.cpp:380] conv2_2 -> conv2_2
I0614 19:57:01.424724 26519 net.cpp:122] Setting up conv2_2
I0614 19:57:01.424734 26519 net.cpp:129] Top shape: 32 128 28 24 (2752512)
I0614 19:57:01.424737 26519 net.cpp:137] Memory required for data: 257360384
I0614 19:57:01.424742 26519 layer_factory.hpp:77] Creating layer relu2_2
I0614 19:57:01.424748 26519 net.cpp:84] Creating Layer relu2_2
I0614 19:57:01.424751 26519 net.cpp:406] relu2_2 <- conv2_2
I0614 19:57:01.424755 26519 net.cpp:367] relu2_2 -> conv2_2 (in-place)
I0614 19:57:01.424903 26519 net.cpp:122] Setting up relu2_2
I0614 19:57:01.424909 26519 net.cpp:129] Top shape: 32 128 28 24 (2752512)
I0614 19:57:01.424912 26519 net.cpp:137] Memory required for data: 268370432
I0614 19:57:01.424916 26519 layer_factory.hpp:77] Creating layer conv2_3
I0614 19:57:01.424933 26519 net.cpp:84] Creating Layer conv2_3
I0614 19:57:01.424937 26519 net.cpp:406] conv2_3 <- conv2_2
I0614 19:57:01.424942 26519 net.cpp:380] conv2_3 -> conv2_3
I0614 19:57:01.428058 26519 net.cpp:122] Setting up conv2_3
I0614 19:57:01.428071 26519 net.cpp:129] Top shape: 32 128 28 24 (2752512)
I0614 19:57:01.428074 26519 net.cpp:137] Memory required for data: 279380480
I0614 19:57:01.428082 26519 layer_factory.hpp:77] Creating layer relu2_3
I0614 19:57:01.428092 26519 net.cpp:84] Creating Layer relu2_3
I0614 19:57:01.428094 26519 net.cpp:406] relu2_3 <- conv2_3
I0614 19:57:01.428099 26519 net.cpp:367] relu2_3 -> conv2_3 (in-place)
I0614 19:57:01.428537 26519 net.cpp:122] Setting up relu2_3
I0614 19:57:01.428542 26519 net.cpp:129] Top shape: 32 128 28 24 (2752512)
I0614 19:57:01.428545 26519 net.cpp:137] Memory required for data: 290390528
I0614 19:57:01.428550 26519 layer_factory.hpp:77] Creating layer res2_3
I0614 19:57:01.428555 26519 net.cpp:84] Creating Layer res2_3
I0614 19:57:01.428558 26519 net.cpp:406] res2_3 <- conv2_1_relu2_1_0_split_1
I0614 19:57:01.428561 26519 net.cpp:406] res2_3 <- conv2_3
I0614 19:57:01.428565 26519 net.cpp:380] res2_3 -> res2_3
I0614 19:57:01.428603 26519 net.cpp:122] Setting up res2_3
I0614 19:57:01.428622 26519 net.cpp:129] Top shape: 32 128 28 24 (2752512)
I0614 19:57:01.428624 26519 net.cpp:137] Memory required for data: 301400576
I0614 19:57:01.428627 26519 layer_factory.hpp:77] Creating layer res2_3_res2_3_0_split
I0614 19:57:01.428647 26519 net.cpp:84] Creating Layer res2_3_res2_3_0_split
I0614 19:57:01.428650 26519 net.cpp:406] res2_3_res2_3_0_split <- res2_3
I0614 19:57:01.428653 26519 net.cpp:380] res2_3_res2_3_0_split -> res2_3_res2_3_0_split_0
I0614 19:57:01.428660 26519 net.cpp:380] res2_3_res2_3_0_split -> res2_3_res2_3_0_split_1
I0614 19:57:01.428704 26519 net.cpp:122] Setting up res2_3_res2_3_0_split
I0614 19:57:01.428709 26519 net.cpp:129] Top shape: 32 128 28 24 (2752512)
I0614 19:57:01.428712 26519 net.cpp:129] Top shape: 32 128 28 24 (2752512)
I0614 19:57:01.428715 26519 net.cpp:137] Memory required for data: 323420672
I0614 19:57:01.428717 26519 layer_factory.hpp:77] Creating layer conv2_4
I0614 19:57:01.428726 26519 net.cpp:84] Creating Layer conv2_4
I0614 19:57:01.428728 26519 net.cpp:406] conv2_4 <- res2_3_res2_3_0_split_0
I0614 19:57:01.428735 26519 net.cpp:380] conv2_4 -> conv2_4
I0614 19:57:01.431133 26519 net.cpp:122] Setting up conv2_4
I0614 19:57:01.431147 26519 net.cpp:129] Top shape: 32 128 28 24 (2752512)
I0614 19:57:01.431150 26519 net.cpp:137] Memory required for data: 334430720
I0614 19:57:01.431157 26519 layer_factory.hpp:77] Creating layer relu2_4
I0614 19:57:01.431164 26519 net.cpp:84] Creating Layer relu2_4
I0614 19:57:01.431166 26519 net.cpp:406] relu2_4 <- conv2_4
I0614 19:57:01.431172 26519 net.cpp:367] relu2_4 -> conv2_4 (in-place)
I0614 19:57:01.431315 26519 net.cpp:122] Setting up relu2_4
I0614 19:57:01.431321 26519 net.cpp:129] Top shape: 32 128 28 24 (2752512)
I0614 19:57:01.431324 26519 net.cpp:137] Memory required for data: 345440768
I0614 19:57:01.431329 26519 layer_factory.hpp:77] Creating layer conv2_5
I0614 19:57:01.431352 26519 net.cpp:84] Creating Layer conv2_5
I0614 19:57:01.431355 26519 net.cpp:406] conv2_5 <- conv2_4
I0614 19:57:01.431360 26519 net.cpp:380] conv2_5 -> conv2_5
I0614 19:57:01.434656 26519 net.cpp:122] Setting up conv2_5
I0614 19:57:01.434684 26519 net.cpp:129] Top shape: 32 128 28 24 (2752512)
I0614 19:57:01.434687 26519 net.cpp:137] Memory required for data: 356450816
I0614 19:57:01.434695 26519 layer_factory.hpp:77] Creating layer relu2_5
I0614 19:57:01.434703 26519 net.cpp:84] Creating Layer relu2_5
I0614 19:57:01.434707 26519 net.cpp:406] relu2_5 <- conv2_5
I0614 19:57:01.434712 26519 net.cpp:367] relu2_5 -> conv2_5 (in-place)
I0614 19:57:01.435181 26519 net.cpp:122] Setting up relu2_5
I0614 19:57:01.435192 26519 net.cpp:129] Top shape: 32 128 28 24 (2752512)
I0614 19:57:01.435284 26519 net.cpp:137] Memory required for data: 367460864
I0614 19:57:01.435292 26519 layer_factory.hpp:77] Creating layer res2_5
I0614 19:57:01.435315 26519 net.cpp:84] Creating Layer res2_5
I0614 19:57:01.435320 26519 net.cpp:406] res2_5 <- res2_3_res2_3_0_split_1
I0614 19:57:01.435325 26519 net.cpp:406] res2_5 <- conv2_5
I0614 19:57:01.435331 26519 net.cpp:380] res2_5 -> res2_5
I0614 19:57:01.435361 26519 net.cpp:122] Setting up res2_5
I0614 19:57:01.435379 26519 net.cpp:129] Top shape: 32 128 28 24 (2752512)
I0614 19:57:01.435381 26519 net.cpp:137] Memory required for data: 378470912
I0614 19:57:01.435384 26519 layer_factory.hpp:77] Creating layer conv3_1
I0614 19:57:01.435408 26519 net.cpp:84] Creating Layer conv3_1
I0614 19:57:01.435423 26519 net.cpp:406] conv3_1 <- res2_5
I0614 19:57:01.435428 26519 net.cpp:380] conv3_1 -> conv3_1
I0614 19:57:01.438406 26519 net.cpp:122] Setting up conv3_1
I0614 19:57:01.438418 26519 net.cpp:129] Top shape: 32 256 14 12 (1376256)
I0614 19:57:01.438421 26519 net.cpp:137] Memory required for data: 383975936
I0614 19:57:01.438427 26519 layer_factory.hpp:77] Creating layer relu3_1
I0614 19:57:01.438434 26519 net.cpp:84] Creating Layer relu3_1
I0614 19:57:01.438437 26519 net.cpp:406] relu3_1 <- conv3_1
I0614 19:57:01.438441 26519 net.cpp:367] relu3_1 -> conv3_1 (in-place)
I0614 19:57:01.438598 26519 net.cpp:122] Setting up relu3_1
I0614 19:57:01.438604 26519 net.cpp:129] Top shape: 32 256 14 12 (1376256)
I0614 19:57:01.438606 26519 net.cpp:137] Memory required for data: 389480960
I0614 19:57:01.438611 26519 layer_factory.hpp:77] Creating layer conv3_1_relu3_1_0_split
I0614 19:57:01.438616 26519 net.cpp:84] Creating Layer conv3_1_relu3_1_0_split
I0614 19:57:01.438617 26519 net.cpp:406] conv3_1_relu3_1_0_split <- conv3_1
I0614 19:57:01.438622 26519 net.cpp:380] conv3_1_relu3_1_0_split -> conv3_1_relu3_1_0_split_0
I0614 19:57:01.438627 26519 net.cpp:380] conv3_1_relu3_1_0_split -> conv3_1_relu3_1_0_split_1
I0614 19:57:01.438699 26519 net.cpp:122] Setting up conv3_1_relu3_1_0_split
I0614 19:57:01.438705 26519 net.cpp:129] Top shape: 32 256 14 12 (1376256)
I0614 19:57:01.438709 26519 net.cpp:129] Top shape: 32 256 14 12 (1376256)
I0614 19:57:01.438711 26519 net.cpp:137] Memory required for data: 400491008
I0614 19:57:01.438714 26519 layer_factory.hpp:77] Creating layer conv3_2
I0614 19:57:01.438721 26519 net.cpp:84] Creating Layer conv3_2
I0614 19:57:01.438724 26519 net.cpp:406] conv3_2 <- conv3_1_relu3_1_0_split_0
I0614 19:57:01.438730 26519 net.cpp:380] conv3_2 -> conv3_2
I0614 19:57:01.444579 26519 net.cpp:122] Setting up conv3_2
I0614 19:57:01.444592 26519 net.cpp:129] Top shape: 32 256 14 12 (1376256)
I0614 19:57:01.444595 26519 net.cpp:137] Memory required for data: 405996032
I0614 19:57:01.444602 26519 layer_factory.hpp:77] Creating layer relu3_2
I0614 19:57:01.444609 26519 net.cpp:84] Creating Layer relu3_2
I0614 19:57:01.444612 26519 net.cpp:406] relu3_2 <- conv3_2
I0614 19:57:01.444618 26519 net.cpp:367] relu3_2 -> conv3_2 (in-place)
I0614 19:57:01.444746 26519 net.cpp:122] Setting up relu3_2
I0614 19:57:01.444751 26519 net.cpp:129] Top shape: 32 256 14 12 (1376256)
I0614 19:57:01.444754 26519 net.cpp:137] Memory required for data: 411501056
I0614 19:57:01.444757 26519 layer_factory.hpp:77] Creating layer conv3_3
I0614 19:57:01.444766 26519 net.cpp:84] Creating Layer conv3_3
I0614 19:57:01.444769 26519 net.cpp:406] conv3_3 <- conv3_2
I0614 19:57:01.444774 26519 net.cpp:380] conv3_3 -> conv3_3
I0614 19:57:01.450587 26519 net.cpp:122] Setting up conv3_3
I0614 19:57:01.450600 26519 net.cpp:129] Top shape: 32 256 14 12 (1376256)
I0614 19:57:01.450603 26519 net.cpp:137] Memory required for data: 417006080
I0614 19:57:01.450608 26519 layer_factory.hpp:77] Creating layer relu3_3
I0614 19:57:01.450613 26519 net.cpp:84] Creating Layer relu3_3
I0614 19:57:01.450618 26519 net.cpp:406] relu3_3 <- conv3_3
I0614 19:57:01.450621 26519 net.cpp:367] relu3_3 -> conv3_3 (in-place)
I0614 19:57:01.450722 26519 net.cpp:122] Setting up relu3_3
I0614 19:57:01.450729 26519 net.cpp:129] Top shape: 32 256 14 12 (1376256)
I0614 19:57:01.450731 26519 net.cpp:137] Memory required for data: 422511104
I0614 19:57:01.450748 26519 layer_factory.hpp:77] Creating layer res3_3
I0614 19:57:01.450755 26519 net.cpp:84] Creating Layer res3_3
I0614 19:57:01.450758 26519 net.cpp:406] res3_3 <- conv3_1_relu3_1_0_split_1
I0614 19:57:01.450762 26519 net.cpp:406] res3_3 <- conv3_3
I0614 19:57:01.450778 26519 net.cpp:380] res3_3 -> res3_3
I0614 19:57:01.450803 26519 net.cpp:122] Setting up res3_3
I0614 19:57:01.450809 26519 net.cpp:129] Top shape: 32 256 14 12 (1376256)
I0614 19:57:01.450810 26519 net.cpp:137] Memory required for data: 428016128
I0614 19:57:01.450814 26519 layer_factory.hpp:77] Creating layer res3_3_res3_3_0_split
I0614 19:57:01.450821 26519 net.cpp:84] Creating Layer res3_3_res3_3_0_split
I0614 19:57:01.450824 26519 net.cpp:406] res3_3_res3_3_0_split <- res3_3
I0614 19:57:01.450829 26519 net.cpp:380] res3_3_res3_3_0_split -> res3_3_res3_3_0_split_0
I0614 19:57:01.450834 26519 net.cpp:380] res3_3_res3_3_0_split -> res3_3_res3_3_0_split_1
I0614 19:57:01.450867 26519 net.cpp:122] Setting up res3_3_res3_3_0_split
I0614 19:57:01.450871 26519 net.cpp:129] Top shape: 32 256 14 12 (1376256)
I0614 19:57:01.450875 26519 net.cpp:129] Top shape: 32 256 14 12 (1376256)
I0614 19:57:01.450877 26519 net.cpp:137] Memory required for data: 439026176
I0614 19:57:01.450881 26519 layer_factory.hpp:77] Creating layer conv3_4
I0614 19:57:01.450888 26519 net.cpp:84] Creating Layer conv3_4
I0614 19:57:01.450892 26519 net.cpp:406] conv3_4 <- res3_3_res3_3_0_split_0
I0614 19:57:01.450896 26519 net.cpp:380] conv3_4 -> conv3_4
I0614 19:57:01.456823 26519 net.cpp:122] Setting up conv3_4
I0614 19:57:01.456836 26519 net.cpp:129] Top shape: 32 256 14 12 (1376256)
I0614 19:57:01.456840 26519 net.cpp:137] Memory required for data: 444531200
I0614 19:57:01.456845 26519 layer_factory.hpp:77] Creating layer relu3_4
I0614 19:57:01.456852 26519 net.cpp:84] Creating Layer relu3_4
I0614 19:57:01.456856 26519 net.cpp:406] relu3_4 <- conv3_4
I0614 19:57:01.456861 26519 net.cpp:367] relu3_4 -> conv3_4 (in-place)
I0614 19:57:01.457001 26519 net.cpp:122] Setting up relu3_4
I0614 19:57:01.457007 26519 net.cpp:129] Top shape: 32 256 14 12 (1376256)
I0614 19:57:01.457010 26519 net.cpp:137] Memory required for data: 450036224
I0614 19:57:01.457013 26519 layer_factory.hpp:77] Creating layer conv3_5
I0614 19:57:01.457036 26519 net.cpp:84] Creating Layer conv3_5
I0614 19:57:01.457038 26519 net.cpp:406] conv3_5 <- conv3_4
I0614 19:57:01.457044 26519 net.cpp:380] conv3_5 -> conv3_5
I0614 19:57:01.462772 26519 net.cpp:122] Setting up conv3_5
I0614 19:57:01.462787 26519 net.cpp:129] Top shape: 32 256 14 12 (1376256)
I0614 19:57:01.462791 26519 net.cpp:137] Memory required for data: 455541248
I0614 19:57:01.462797 26519 layer_factory.hpp:77] Creating layer relu3_5
I0614 19:57:01.462803 26519 net.cpp:84] Creating Layer relu3_5
I0614 19:57:01.462806 26519 net.cpp:406] relu3_5 <- conv3_5
I0614 19:57:01.462811 26519 net.cpp:367] relu3_5 -> conv3_5 (in-place)
I0614 19:57:01.462940 26519 net.cpp:122] Setting up relu3_5
I0614 19:57:01.462946 26519 net.cpp:129] Top shape: 32 256 14 12 (1376256)
I0614 19:57:01.462949 26519 net.cpp:137] Memory required for data: 461046272
I0614 19:57:01.462967 26519 layer_factory.hpp:77] Creating layer res3_5
I0614 19:57:01.462975 26519 net.cpp:84] Creating Layer res3_5
I0614 19:57:01.462978 26519 net.cpp:406] res3_5 <- res3_3_res3_3_0_split_1
I0614 19:57:01.462981 26519 net.cpp:406] res3_5 <- conv3_5
I0614 19:57:01.462998 26519 net.cpp:380] res3_5 -> res3_5
I0614 19:57:01.463057 26519 net.cpp:122] Setting up res3_5
I0614 19:57:01.463063 26519 net.cpp:129] Top shape: 32 256 14 12 (1376256)
I0614 19:57:01.463064 26519 net.cpp:137] Memory required for data: 466551296
I0614 19:57:01.463068 26519 layer_factory.hpp:77] Creating layer res3_5_res3_5_0_split
I0614 19:57:01.463073 26519 net.cpp:84] Creating Layer res3_5_res3_5_0_split
I0614 19:57:01.463074 26519 net.cpp:406] res3_5_res3_5_0_split <- res3_5
I0614 19:57:01.463079 26519 net.cpp:380] res3_5_res3_5_0_split -> res3_5_res3_5_0_split_0
I0614 19:57:01.463085 26519 net.cpp:380] res3_5_res3_5_0_split -> res3_5_res3_5_0_split_1
I0614 19:57:01.463155 26519 net.cpp:122] Setting up res3_5_res3_5_0_split
I0614 19:57:01.463160 26519 net.cpp:129] Top shape: 32 256 14 12 (1376256)
I0614 19:57:01.463163 26519 net.cpp:129] Top shape: 32 256 14 12 (1376256)
I0614 19:57:01.463166 26519 net.cpp:137] Memory required for data: 477561344
I0614 19:57:01.463168 26519 layer_factory.hpp:77] Creating layer conv3_6
I0614 19:57:01.463177 26519 net.cpp:84] Creating Layer conv3_6
I0614 19:57:01.463181 26519 net.cpp:406] conv3_6 <- res3_5_res3_5_0_split_0
I0614 19:57:01.463186 26519 net.cpp:380] conv3_6 -> conv3_6
I0614 19:57:01.469549 26519 net.cpp:122] Setting up conv3_6
I0614 19:57:01.469566 26519 net.cpp:129] Top shape: 32 256 14 12 (1376256)
I0614 19:57:01.469568 26519 net.cpp:137] Memory required for data: 483066368
I0614 19:57:01.469575 26519 layer_factory.hpp:77] Creating layer relu3_6
I0614 19:57:01.469583 26519 net.cpp:84] Creating Layer relu3_6
I0614 19:57:01.469586 26519 net.cpp:406] relu3_6 <- conv3_6
I0614 19:57:01.469591 26519 net.cpp:367] relu3_6 -> conv3_6 (in-place)
I0614 19:57:01.469696 26519 net.cpp:122] Setting up relu3_6
I0614 19:57:01.469702 26519 net.cpp:129] Top shape: 32 256 14 12 (1376256)
I0614 19:57:01.469703 26519 net.cpp:137] Memory required for data: 488571392
I0614 19:57:01.469707 26519 layer_factory.hpp:77] Creating layer conv3_7
I0614 19:57:01.469715 26519 net.cpp:84] Creating Layer conv3_7
I0614 19:57:01.469718 26519 net.cpp:406] conv3_7 <- conv3_6
I0614 19:57:01.469723 26519 net.cpp:380] conv3_7 -> conv3_7
I0614 19:57:01.475529 26519 net.cpp:122] Setting up conv3_7
I0614 19:57:01.475541 26519 net.cpp:129] Top shape: 32 256 14 12 (1376256)
I0614 19:57:01.475544 26519 net.cpp:137] Memory required for data: 494076416
I0614 19:57:01.475550 26519 layer_factory.hpp:77] Creating layer relu3_7
I0614 19:57:01.475555 26519 net.cpp:84] Creating Layer relu3_7
I0614 19:57:01.475559 26519 net.cpp:406] relu3_7 <- conv3_7
I0614 19:57:01.475564 26519 net.cpp:367] relu3_7 -> conv3_7 (in-place)
I0614 19:57:01.475667 26519 net.cpp:122] Setting up relu3_7
I0614 19:57:01.475672 26519 net.cpp:129] Top shape: 32 256 14 12 (1376256)
I0614 19:57:01.475675 26519 net.cpp:137] Memory required for data: 499581440
I0614 19:57:01.475678 26519 layer_factory.hpp:77] Creating layer res3_7
I0614 19:57:01.475687 26519 net.cpp:84] Creating Layer res3_7
I0614 19:57:01.475689 26519 net.cpp:406] res3_7 <- res3_5_res3_5_0_split_1
I0614 19:57:01.475693 26519 net.cpp:406] res3_7 <- conv3_7
I0614 19:57:01.475697 26519 net.cpp:380] res3_7 -> res3_7
I0614 19:57:01.475720 26519 net.cpp:122] Setting up res3_7
I0614 19:57:01.475724 26519 net.cpp:129] Top shape: 32 256 14 12 (1376256)
I0614 19:57:01.475728 26519 net.cpp:137] Memory required for data: 505086464
I0614 19:57:01.475729 26519 layer_factory.hpp:77] Creating layer res3_7_res3_7_0_split
I0614 19:57:01.475735 26519 net.cpp:84] Creating Layer res3_7_res3_7_0_split
I0614 19:57:01.475738 26519 net.cpp:406] res3_7_res3_7_0_split <- res3_7
I0614 19:57:01.475741 26519 net.cpp:380] res3_7_res3_7_0_split -> res3_7_res3_7_0_split_0
I0614 19:57:01.475746 26519 net.cpp:380] res3_7_res3_7_0_split -> res3_7_res3_7_0_split_1
I0614 19:57:01.475795 26519 net.cpp:122] Setting up res3_7_res3_7_0_split
I0614 19:57:01.475800 26519 net.cpp:129] Top shape: 32 256 14 12 (1376256)
I0614 19:57:01.475817 26519 net.cpp:129] Top shape: 32 256 14 12 (1376256)
I0614 19:57:01.475819 26519 net.cpp:137] Memory required for data: 516096512
I0614 19:57:01.475822 26519 layer_factory.hpp:77] Creating layer conv3_8
I0614 19:57:01.475829 26519 net.cpp:84] Creating Layer conv3_8
I0614 19:57:01.475833 26519 net.cpp:406] conv3_8 <- res3_7_res3_7_0_split_0
I0614 19:57:01.475839 26519 net.cpp:380] conv3_8 -> conv3_8
I0614 19:57:01.481655 26519 net.cpp:122] Setting up conv3_8
I0614 19:57:01.481668 26519 net.cpp:129] Top shape: 32 256 14 12 (1376256)
I0614 19:57:01.481672 26519 net.cpp:137] Memory required for data: 521601536
I0614 19:57:01.481676 26519 layer_factory.hpp:77] Creating layer relu3_8
I0614 19:57:01.481681 26519 net.cpp:84] Creating Layer relu3_8
I0614 19:57:01.481696 26519 net.cpp:406] relu3_8 <- conv3_8
I0614 19:57:01.481703 26519 net.cpp:367] relu3_8 -> conv3_8 (in-place)
I0614 19:57:01.481808 26519 net.cpp:122] Setting up relu3_8
I0614 19:57:01.481815 26519 net.cpp:129] Top shape: 32 256 14 12 (1376256)
I0614 19:57:01.481818 26519 net.cpp:137] Memory required for data: 527106560
I0614 19:57:01.481822 26519 layer_factory.hpp:77] Creating layer conv3_9
I0614 19:57:01.481829 26519 net.cpp:84] Creating Layer conv3_9
I0614 19:57:01.481832 26519 net.cpp:406] conv3_9 <- conv3_8
I0614 19:57:01.481837 26519 net.cpp:380] conv3_9 -> conv3_9
I0614 19:57:01.487675 26519 net.cpp:122] Setting up conv3_9
I0614 19:57:01.487687 26519 net.cpp:129] Top shape: 32 256 14 12 (1376256)
I0614 19:57:01.487689 26519 net.cpp:137] Memory required for data: 532611584
I0614 19:57:01.487709 26519 layer_factory.hpp:77] Creating layer relu3_9
I0614 19:57:01.487716 26519 net.cpp:84] Creating Layer relu3_9
I0614 19:57:01.487720 26519 net.cpp:406] relu3_9 <- conv3_9
I0614 19:57:01.487725 26519 net.cpp:367] relu3_9 -> conv3_9 (in-place)
I0614 19:57:01.488631 26519 net.cpp:122] Setting up relu3_9
I0614 19:57:01.488641 26519 net.cpp:129] Top shape: 32 256 14 12 (1376256)
I0614 19:57:01.488643 26519 net.cpp:137] Memory required for data: 538116608
I0614 19:57:01.488648 26519 layer_factory.hpp:77] Creating layer res3_9
I0614 19:57:01.488668 26519 net.cpp:84] Creating Layer res3_9
I0614 19:57:01.488672 26519 net.cpp:406] res3_9 <- res3_7_res3_7_0_split_1
I0614 19:57:01.488677 26519 net.cpp:406] res3_9 <- conv3_9
I0614 19:57:01.488682 26519 net.cpp:380] res3_9 -> res3_9
I0614 19:57:01.488709 26519 net.cpp:122] Setting up res3_9
I0614 19:57:01.488714 26519 net.cpp:129] Top shape: 32 256 14 12 (1376256)
I0614 19:57:01.488716 26519 net.cpp:137] Memory required for data: 543621632
I0614 19:57:01.488719 26519 layer_factory.hpp:77] Creating layer conv4_1
I0614 19:57:01.488728 26519 net.cpp:84] Creating Layer conv4_1
I0614 19:57:01.488730 26519 net.cpp:406] conv4_1 <- res3_9
I0614 19:57:01.488736 26519 net.cpp:380] conv4_1 -> conv4_1
I0614 19:57:01.495645 26519 net.cpp:122] Setting up conv4_1
I0614 19:57:01.495661 26519 net.cpp:129] Top shape: 32 512 7 6 (688128)
I0614 19:57:01.495663 26519 net.cpp:137] Memory required for data: 546374144
I0614 19:57:01.495669 26519 layer_factory.hpp:77] Creating layer relu4_1
I0614 19:57:01.495676 26519 net.cpp:84] Creating Layer relu4_1
I0614 19:57:01.495679 26519 net.cpp:406] relu4_1 <- conv4_1
I0614 19:57:01.495685 26519 net.cpp:367] relu4_1 -> conv4_1 (in-place)
I0614 19:57:01.495780 26519 net.cpp:122] Setting up relu4_1
I0614 19:57:01.495786 26519 net.cpp:129] Top shape: 32 512 7 6 (688128)
I0614 19:57:01.495790 26519 net.cpp:137] Memory required for data: 549126656
I0614 19:57:01.495793 26519 layer_factory.hpp:77] Creating layer conv4_1_relu4_1_0_split
I0614 19:57:01.495797 26519 net.cpp:84] Creating Layer conv4_1_relu4_1_0_split
I0614 19:57:01.495800 26519 net.cpp:406] conv4_1_relu4_1_0_split <- conv4_1
I0614 19:57:01.495805 26519 net.cpp:380] conv4_1_relu4_1_0_split -> conv4_1_relu4_1_0_split_0
I0614 19:57:01.495811 26519 net.cpp:380] conv4_1_relu4_1_0_split -> conv4_1_relu4_1_0_split_1
I0614 19:57:01.495872 26519 net.cpp:122] Setting up conv4_1_relu4_1_0_split
I0614 19:57:01.495877 26519 net.cpp:129] Top shape: 32 512 7 6 (688128)
I0614 19:57:01.495879 26519 net.cpp:129] Top shape: 32 512 7 6 (688128)
I0614 19:57:01.495882 26519 net.cpp:137] Memory required for data: 554631680
I0614 19:57:01.495884 26519 layer_factory.hpp:77] Creating layer conv4_2
I0614 19:57:01.495893 26519 net.cpp:84] Creating Layer conv4_2
I0614 19:57:01.495895 26519 net.cpp:406] conv4_2 <- conv4_1_relu4_1_0_split_0
I0614 19:57:01.495900 26519 net.cpp:380] conv4_2 -> conv4_2
I0614 19:57:01.515609 26519 net.cpp:122] Setting up conv4_2
I0614 19:57:01.515625 26519 net.cpp:129] Top shape: 32 512 7 6 (688128)
I0614 19:57:01.515627 26519 net.cpp:137] Memory required for data: 557384192
I0614 19:57:01.515635 26519 layer_factory.hpp:77] Creating layer relu4_2
I0614 19:57:01.515655 26519 net.cpp:84] Creating Layer relu4_2
I0614 19:57:01.515673 26519 net.cpp:406] relu4_2 <- conv4_2
I0614 19:57:01.515678 26519 net.cpp:367] relu4_2 -> conv4_2 (in-place)
I0614 19:57:01.515791 26519 net.cpp:122] Setting up relu4_2
I0614 19:57:01.515796 26519 net.cpp:129] Top shape: 32 512 7 6 (688128)
I0614 19:57:01.515799 26519 net.cpp:137] Memory required for data: 560136704
I0614 19:57:01.515802 26519 layer_factory.hpp:77] Creating layer conv4_3
I0614 19:57:01.515833 26519 net.cpp:84] Creating Layer conv4_3
I0614 19:57:01.515836 26519 net.cpp:406] conv4_3 <- conv4_2
I0614 19:57:01.515842 26519 net.cpp:380] conv4_3 -> conv4_3
I0614 19:57:01.535050 26519 net.cpp:122] Setting up conv4_3
I0614 19:57:01.535101 26519 net.cpp:129] Top shape: 32 512 7 6 (688128)
I0614 19:57:01.535105 26519 net.cpp:137] Memory required for data: 562889216
I0614 19:57:01.535112 26519 layer_factory.hpp:77] Creating layer relu4_3
I0614 19:57:01.535118 26519 net.cpp:84] Creating Layer relu4_3
I0614 19:57:01.535122 26519 net.cpp:406] relu4_3 <- conv4_3
I0614 19:57:01.535128 26519 net.cpp:367] relu4_3 -> conv4_3 (in-place)
I0614 19:57:01.535239 26519 net.cpp:122] Setting up relu4_3
I0614 19:57:01.535245 26519 net.cpp:129] Top shape: 32 512 7 6 (688128)
I0614 19:57:01.535248 26519 net.cpp:137] Memory required for data: 565641728
I0614 19:57:01.535251 26519 layer_factory.hpp:77] Creating layer res4_3
I0614 19:57:01.535257 26519 net.cpp:84] Creating Layer res4_3
I0614 19:57:01.535274 26519 net.cpp:406] res4_3 <- conv4_1_relu4_1_0_split_1
I0614 19:57:01.535279 26519 net.cpp:406] res4_3 <- conv4_3
I0614 19:57:01.535282 26519 net.cpp:380] res4_3 -> res4_3
I0614 19:57:01.535305 26519 net.cpp:122] Setting up res4_3
I0614 19:57:01.535310 26519 net.cpp:129] Top shape: 32 512 7 6 (688128)
I0614 19:57:01.535313 26519 net.cpp:137] Memory required for data: 568394240
I0614 19:57:01.535315 26519 layer_factory.hpp:77] Creating layer fc5
I0614 19:57:01.535322 26519 net.cpp:84] Creating Layer fc5
I0614 19:57:01.535324 26519 net.cpp:406] fc5 <- res4_3
I0614 19:57:01.535329 26519 net.cpp:380] fc5 -> fc5
I0614 19:57:01.585186 26519 net.cpp:122] Setting up fc5
I0614 19:57:01.585202 26519 net.cpp:129] Top shape: 32 512 (16384)
I0614 19:57:01.585204 26519 net.cpp:137] Memory required for data: 568459776
I0614 19:57:01.585227 26519 layer_factory.hpp:77] Creating layer norm1
I0614 19:57:01.585233 26519 net.cpp:84] Creating Layer norm1
I0614 19:57:01.585237 26519 net.cpp:406] norm1 <- fc5
I0614 19:57:01.585242 26519 net.cpp:380] norm1 -> norm1
I0614 19:57:01.585340 26519 net.cpp:122] Setting up norm1
I0614 19:57:01.585345 26519 net.cpp:129] Top shape: 32 512 1 1 (16384)
I0614 19:57:01.585347 26519 net.cpp:137] Memory required for data: 568525312
I0614 19:57:01.585350 26519 layer_factory.hpp:77] Creating layer fc6_l2
I0614 19:57:01.585355 26519 net.cpp:84] Creating Layer fc6_l2
I0614 19:57:01.585358 26519 net.cpp:406] fc6_l2 <- norm1
I0614 19:57:01.585362 26519 net.cpp:380] fc6_l2 -> fc6
I0614 19:57:01.585638 26519 net.cpp:122] Setting up fc6_l2
I0614 19:57:01.585644 26519 net.cpp:129] Top shape: 32 100 (3200)
I0614 19:57:01.585646 26519 net.cpp:137] Memory required for data: 568538112
I0614 19:57:01.585649 26519 layer_factory.hpp:77] Creating layer fc6_fc6_l2_0_split
I0614 19:57:01.585654 26519 net.cpp:84] Creating Layer fc6_fc6_l2_0_split
I0614 19:57:01.585656 26519 net.cpp:406] fc6_fc6_l2_0_split <- fc6
I0614 19:57:01.585661 26519 net.cpp:380] fc6_fc6_l2_0_split -> fc6_fc6_l2_0_split_0
I0614 19:57:01.585666 26519 net.cpp:380] fc6_fc6_l2_0_split -> fc6_fc6_l2_0_split_1
I0614 19:57:01.585719 26519 net.cpp:122] Setting up fc6_fc6_l2_0_split
I0614 19:57:01.585767 26519 net.cpp:129] Top shape: 32 100 (3200)
I0614 19:57:01.585783 26519 net.cpp:129] Top shape: 32 100 (3200)
I0614 19:57:01.585785 26519 net.cpp:137] Memory required for data: 568563712
I0614 19:57:01.585788 26519 layer_factory.hpp:77] Creating layer label_specific_margin
I0614 19:57:01.585794 26519 net.cpp:84] Creating Layer label_specific_margin
I0614 19:57:01.585798 26519 net.cpp:406] label_specific_margin <- fc6_fc6_l2_0_split_0
I0614 19:57:01.585811 26519 net.cpp:406] label_specific_margin <- label_data_1_split_0
I0614 19:57:01.585816 26519 net.cpp:380] label_specific_margin -> fc6_margin
I0614 19:57:01.585844 26519 net.cpp:122] Setting up label_specific_margin
I0614 19:57:01.585849 26519 net.cpp:129] Top shape: 32 100 (3200)
I0614 19:57:01.585850 26519 net.cpp:137] Memory required for data: 568576512
I0614 19:57:01.585853 26519 layer_factory.hpp:77] Creating layer fc6_margin_scale
I0614 19:57:01.585860 26519 net.cpp:84] Creating Layer fc6_margin_scale
I0614 19:57:01.585862 26519 net.cpp:406] fc6_margin_scale <- fc6_margin
I0614 19:57:01.585866 26519 net.cpp:380] fc6_margin_scale -> fc6_margin_scale
I0614 19:57:01.586000 26519 net.cpp:122] Setting up fc6_margin_scale
I0614 19:57:01.586005 26519 net.cpp:129] Top shape: 32 100 (3200)
I0614 19:57:01.586007 26519 net.cpp:137] Memory required for data: 568589312
I0614 19:57:01.586011 26519 layer_factory.hpp:77] Creating layer softmax_loss
I0614 19:57:01.586033 26519 net.cpp:84] Creating Layer softmax_loss
I0614 19:57:01.586036 26519 net.cpp:406] softmax_loss <- fc6_margin_scale
I0614 19:57:01.586040 26519 net.cpp:406] softmax_loss <- label_data_1_split_1
I0614 19:57:01.586043 26519 net.cpp:380] softmax_loss -> softmax_loss
…
